{"format": "layers-model", "generatedBy": "keras v3.3.3", "convertedBy": "TensorFlow.js Converter v4.19.0", "modelTopology": {"keras_version": "3.3.3", "backend": "tensorflow", "model_config": {"class_name": "Functional", "config": {"name": "functional_11", "trainable": true, "layers": [{"class_name": "InputLayer", "config": {"batch_shape": [null, 32, 32, 3], "dtype": "float32", "sparse": false, "name": "input_layer_6"}, "name": "input_layer_6", "inbound_nodes": []}, {"class_name": "Conv2D", "config": {"name": "conv2d_584", "trainable": true, "dtype": "float32", "filters": 64, "kernel_size": [3, 3], "strides": [1, 1], "padding": "same", "data_format": "channels_last", "dilation_rate": [1, 1], "groups": 1, "activation": "linear", "use_bias": true, "kernel_initializer": {"module": "keras.initializers", "class_name": "GlorotUniform", "config": {"seed": null}, "registered_name": null}, "bias_initializer": {"module": "keras.initializers", "class_name": "Zeros", "config": {}, "registered_name": null}, "kernel_regularizer": null, "bias_regularizer": null, "activity_regularizer": null, "kernel_constraint": null, "bias_constraint": null}, "name": "conv2d_584", "inbound_nodes": [{"args": [{"class_name": "__keras_tensor__", "config": {"shape": [null, 32, 32, 3], "dtype": "float32", "keras_history": ["input_layer_6", 0, 0]}}], "kwargs": {}}]}, {"class_name": "LeakyReLU", "config": {"name": "leaky_re_lu_308", "trainable": true, "dtype": "float32", "negative_slope": 0.2}, "name": "leaky_re_lu_308", "inbound_nodes": [{"args": [{"class_name": "__keras_tensor__", "config": {"shape": [null, 32, 32, 64], "dtype": "float32", "keras_history": ["conv2d_584", 0, 0]}}], "kwargs": {}}]}, {"class_name": "BatchNormalization", "config": {"name": "batch_normalization_588", "trainable": true, "dtype": "float32", "axis": -1, "momentum": 0.99, "epsilon": 0.001, "center": true, "scale": true, "beta_initializer": {"module": "keras.initializers", "class_name": "Zeros", "config": {}, "registered_name": null}, "gamma_initializer": {"module": "keras.initializers", "class_name": "Ones", "config": {}, "registered_name": null}, "moving_mean_initializer": {"module": "keras.initializers", "class_name": "Zeros", "config": {}, "registered_name": null}, "moving_variance_initializer": {"module": "keras.initializers", "class_name": "Ones", "config": {}, "registered_name": null}, "beta_regularizer": null, "gamma_regularizer": null, "beta_constraint": null, "gamma_constraint": null, "synchronized": false}, "name": "batch_normalization_588", "inbound_nodes": [{"args": [{"class_name": "__keras_tensor__", "config": {"shape": [null, 32, 32, 64], "dtype": "float32", "keras_history": ["leaky_re_lu_308", 0, 0]}}], "kwargs": {"mask": null}}]}, {"class_name": "Conv2D", "config": {"name": "conv2d_585", "trainable": true, "dtype": "float32", "filters": 64, "kernel_size": [3, 3], "strides": [1, 1], "padding": "same", "data_format": "channels_last", "dilation_rate": [1, 1], "groups": 1, "activation": "linear", "use_bias": true, "kernel_initializer": {"module": "keras.initializers", "class_name": "GlorotUniform", "config": {"seed": null}, "registered_name": null}, "bias_initializer": {"module": "keras.initializers", "class_name": "Zeros", "config": {}, "registered_name": null}, "kernel_regularizer": null, "bias_regularizer": null, "activity_regularizer": null, "kernel_constraint": null, "bias_constraint": null}, "name": "conv2d_585", "inbound_nodes": [{"args": [{"class_name": "__keras_tensor__", "config": {"shape": [null, 32, 32, 64], "dtype": "float32", "keras_history": ["batch_normalization_588", 0, 0]}}], "kwargs": {}}]}, {"class_name": "LeakyReLU", "config": {"name": "leaky_re_lu_309", "trainable": true, "dtype": "float32", "negative_slope": 0.2}, "name": "leaky_re_lu_309", "inbound_nodes": [{"args": [{"class_name": "__keras_tensor__", "config": {"shape": [null, 32, 32, 64], "dtype": "float32", "keras_history": ["conv2d_585", 0, 0]}}], "kwargs": {}}]}, {"class_name": "BatchNormalization", "config": {"name": "batch_normalization_589", "trainable": true, "dtype": "float32", "axis": -1, "momentum": 0.99, "epsilon": 0.001, "center": true, "scale": true, "beta_initializer": {"module": "keras.initializers", "class_name": "Zeros", "config": {}, "registered_name": null}, "gamma_initializer": {"module": "keras.initializers", "class_name": "Ones", "config": {}, "registered_name": null}, "moving_mean_initializer": {"module": "keras.initializers", "class_name": "Zeros", "config": {}, "registered_name": null}, "moving_variance_initializer": {"module": "keras.initializers", "class_name": "Ones", "config": {}, "registered_name": null}, "beta_regularizer": null, "gamma_regularizer": null, "beta_constraint": null, "gamma_constraint": null, "synchronized": false}, "name": "batch_normalization_589", "inbound_nodes": [{"args": [{"class_name": "__keras_tensor__", "config": {"shape": [null, 32, 32, 64], "dtype": "float32", "keras_history": ["leaky_re_lu_309", 0, 0]}}], "kwargs": {"mask": null}}]}, {"class_name": "Conv2D", "config": {"name": "conv2d_586", "trainable": true, "dtype": "float32", "filters": 64, "kernel_size": [3, 3], "strides": [1, 1], "padding": "same", "data_format": "channels_last", "dilation_rate": [1, 1], "groups": 1, "activation": "linear", "use_bias": true, "kernel_initializer": {"module": "keras.initializers", "class_name": "GlorotUniform", "config": {"seed": null}, "registered_name": null}, "bias_initializer": {"module": "keras.initializers", "class_name": "Zeros", "config": {}, "registered_name": null}, "kernel_regularizer": null, "bias_regularizer": null, "activity_regularizer": null, "kernel_constraint": null, "bias_constraint": null}, "name": "conv2d_586", "inbound_nodes": [{"args": [{"class_name": "__keras_tensor__", "config": {"shape": [null, 32, 32, 64], "dtype": "float32", "keras_history": ["batch_normalization_589", 0, 0]}}], "kwargs": {}}]}, {"class_name": "BatchNormalization", "config": {"name": "batch_normalization_590", "trainable": true, "dtype": "float32", "axis": -1, "momentum": 0.99, "epsilon": 0.001, "center": true, "scale": true, "beta_initializer": {"module": "keras.initializers", "class_name": "Zeros", "config": {}, "registered_name": null}, "gamma_initializer": {"module": "keras.initializers", "class_name": "Ones", "config": {}, "registered_name": null}, "moving_mean_initializer": {"module": "keras.initializers", "class_name": "Zeros", "config": {}, "registered_name": null}, "moving_variance_initializer": {"module": "keras.initializers", "class_name": "Ones", "config": {}, "registered_name": null}, "beta_regularizer": null, "gamma_regularizer": null, "beta_constraint": null, "gamma_constraint": null, "synchronized": false}, "name": "batch_normalization_590", "inbound_nodes": [{"args": [{"class_name": "__keras_tensor__", "config": {"shape": [null, 32, 32, 64], "dtype": "float32", "keras_history": ["conv2d_586", 0, 0]}}], "kwargs": {"mask": null}}]}, {"class_name": "Add", "config": {"name": "add_280", "trainable": true, "dtype": "float32"}, "name": "add_280", "inbound_nodes": [{"args": [[{"class_name": "__keras_tensor__", "config": {"shape": [null, 32, 32, 64], "dtype": "float32", "keras_history": ["batch_normalization_588", 0, 0]}}, {"class_name": "__keras_tensor__", "config": {"shape": [null, 32, 32, 64], "dtype": "float32", "keras_history": ["batch_normalization_590", 0, 0]}}]], "kwargs": {}}]}, {"class_name": "Conv2D", "config": {"name": "conv2d_587", "trainable": true, "dtype": "float32", "filters": 64, "kernel_size": [3, 3], "strides": [1, 1], "padding": "same", "data_format": "channels_last", "dilation_rate": [1, 1], "groups": 1, "activation": "linear", "use_bias": true, "kernel_initializer": {"module": "keras.initializers", "class_name": "GlorotUniform", "config": {"seed": null}, "registered_name": null}, "bias_initializer": {"module": "keras.initializers", "class_name": "Zeros", "config": {}, "registered_name": null}, "kernel_regularizer": null, "bias_regularizer": null, "activity_regularizer": null, "kernel_constraint": null, "bias_constraint": null}, "name": "conv2d_587", "inbound_nodes": [{"args": [{"class_name": "__keras_tensor__", "config": {"shape": [null, 32, 32, 64], "dtype": "float32", "keras_history": ["add_280", 0, 0]}}], "kwargs": {}}]}, {"class_name": "LeakyReLU", "config": {"name": "leaky_re_lu_310", "trainable": true, "dtype": "float32", "negative_slope": 0.2}, "name": "leaky_re_lu_310", "inbound_nodes": [{"args": [{"class_name": "__keras_tensor__", "config": {"shape": [null, 32, 32, 64], "dtype": "float32", "keras_history": ["conv2d_587", 0, 0]}}], "kwargs": {}}]}, {"class_name": "BatchNormalization", "config": {"name": "batch_normalization_591", "trainable": true, "dtype": "float32", "axis": -1, "momentum": 0.99, "epsilon": 0.001, "center": true, "scale": true, "beta_initializer": {"module": "keras.initializers", "class_name": "Zeros", "config": {}, "registered_name": null}, "gamma_initializer": {"module": "keras.initializers", "class_name": "Ones", "config": {}, "registered_name": null}, "moving_mean_initializer": {"module": "keras.initializers", "class_name": "Zeros", "config": {}, "registered_name": null}, "moving_variance_initializer": {"module": "keras.initializers", "class_name": "Ones", "config": {}, "registered_name": null}, "beta_regularizer": null, "gamma_regularizer": null, "beta_constraint": null, "gamma_constraint": null, "synchronized": false}, "name": "batch_normalization_591", "inbound_nodes": [{"args": [{"class_name": "__keras_tensor__", "config": {"shape": [null, 32, 32, 64], "dtype": "float32", "keras_history": ["leaky_re_lu_310", 0, 0]}}], "kwargs": {"mask": null}}]}, {"class_name": "Conv2D", "config": {"name": "conv2d_588", "trainable": true, "dtype": "float32", "filters": 64, "kernel_size": [3, 3], "strides": [1, 1], "padding": "same", "data_format": "channels_last", "dilation_rate": [1, 1], "groups": 1, "activation": "linear", "use_bias": true, "kernel_initializer": {"module": "keras.initializers", "class_name": "GlorotUniform", "config": {"seed": null}, "registered_name": null}, "bias_initializer": {"module": "keras.initializers", "class_name": "Zeros", "config": {}, "registered_name": null}, "kernel_regularizer": null, "bias_regularizer": null, "activity_regularizer": null, "kernel_constraint": null, "bias_constraint": null}, "name": "conv2d_588", "inbound_nodes": [{"args": [{"class_name": "__keras_tensor__", "config": {"shape": [null, 32, 32, 64], "dtype": "float32", "keras_history": ["batch_normalization_591", 0, 0]}}], "kwargs": {}}]}, {"class_name": "BatchNormalization", "config": {"name": "batch_normalization_592", "trainable": true, "dtype": "float32", "axis": -1, "momentum": 0.99, "epsilon": 0.001, "center": true, "scale": true, "beta_initializer": {"module": "keras.initializers", "class_name": "Zeros", "config": {}, "registered_name": null}, "gamma_initializer": {"module": "keras.initializers", "class_name": "Ones", "config": {}, "registered_name": null}, "moving_mean_initializer": {"module": "keras.initializers", "class_name": "Zeros", "config": {}, "registered_name": null}, "moving_variance_initializer": {"module": "keras.initializers", "class_name": "Ones", "config": {}, "registered_name": null}, "beta_regularizer": null, "gamma_regularizer": null, "beta_constraint": null, "gamma_constraint": null, "synchronized": false}, "name": "batch_normalization_592", "inbound_nodes": [{"args": [{"class_name": "__keras_tensor__", "config": {"shape": [null, 32, 32, 64], "dtype": "float32", "keras_history": ["conv2d_588", 0, 0]}}], "kwargs": {"mask": null}}]}, {"class_name": "Add", "config": {"name": "add_281", "trainable": true, "dtype": "float32"}, "name": "add_281", "inbound_nodes": [{"args": [[{"class_name": "__keras_tensor__", "config": {"shape": [null, 32, 32, 64], "dtype": "float32", "keras_history": ["add_280", 0, 0]}}, {"class_name": "__keras_tensor__", "config": {"shape": [null, 32, 32, 64], "dtype": "float32", "keras_history": ["batch_normalization_592", 0, 0]}}]], "kwargs": {}}]}, {"class_name": "Conv2D", "config": {"name": "conv2d_589", "trainable": true, "dtype": "float32", "filters": 64, "kernel_size": [3, 3], "strides": [1, 1], "padding": "same", "data_format": "channels_last", "dilation_rate": [1, 1], "groups": 1, "activation": "linear", "use_bias": true, "kernel_initializer": {"module": "keras.initializers", "class_name": "GlorotUniform", "config": {"seed": null}, "registered_name": null}, "bias_initializer": {"module": "keras.initializers", "class_name": "Zeros", "config": {}, "registered_name": null}, "kernel_regularizer": null, "bias_regularizer": null, "activity_regularizer": null, "kernel_constraint": null, "bias_constraint": null}, "name": "conv2d_589", "inbound_nodes": [{"args": [{"class_name": "__keras_tensor__", "config": {"shape": [null, 32, 32, 64], "dtype": "float32", "keras_history": ["add_281", 0, 0]}}], "kwargs": {}}]}, {"class_name": "LeakyReLU", "config": {"name": "leaky_re_lu_311", "trainable": true, "dtype": "float32", "negative_slope": 0.2}, "name": "leaky_re_lu_311", "inbound_nodes": [{"args": [{"class_name": "__keras_tensor__", "config": {"shape": [null, 32, 32, 64], "dtype": "float32", "keras_history": ["conv2d_589", 0, 0]}}], "kwargs": {}}]}, {"class_name": "BatchNormalization", "config": {"name": "batch_normalization_593", "trainable": true, "dtype": "float32", "axis": -1, "momentum": 0.99, "epsilon": 0.001, "center": true, "scale": true, "beta_initializer": {"module": "keras.initializers", "class_name": "Zeros", "config": {}, "registered_name": null}, "gamma_initializer": {"module": "keras.initializers", "class_name": "Ones", "config": {}, "registered_name": null}, "moving_mean_initializer": {"module": "keras.initializers", "class_name": "Zeros", "config": {}, "registered_name": null}, "moving_variance_initializer": {"module": "keras.initializers", "class_name": "Ones", "config": {}, "registered_name": null}, "beta_regularizer": null, "gamma_regularizer": null, "beta_constraint": null, "gamma_constraint": null, "synchronized": false}, "name": "batch_normalization_593", "inbound_nodes": [{"args": [{"class_name": "__keras_tensor__", "config": {"shape": [null, 32, 32, 64], "dtype": "float32", "keras_history": ["leaky_re_lu_311", 0, 0]}}], "kwargs": {"mask": null}}]}, {"class_name": "Conv2D", "config": {"name": "conv2d_590", "trainable": true, "dtype": "float32", "filters": 64, "kernel_size": [3, 3], "strides": [1, 1], "padding": "same", "data_format": "channels_last", "dilation_rate": [1, 1], "groups": 1, "activation": "linear", "use_bias": true, "kernel_initializer": {"module": "keras.initializers", "class_name": "GlorotUniform", "config": {"seed": null}, "registered_name": null}, "bias_initializer": {"module": "keras.initializers", "class_name": "Zeros", "config": {}, "registered_name": null}, "kernel_regularizer": null, "bias_regularizer": null, "activity_regularizer": null, "kernel_constraint": null, "bias_constraint": null}, "name": "conv2d_590", "inbound_nodes": [{"args": [{"class_name": "__keras_tensor__", "config": {"shape": [null, 32, 32, 64], "dtype": "float32", "keras_history": ["batch_normalization_593", 0, 0]}}], "kwargs": {}}]}, {"class_name": "BatchNormalization", "config": {"name": "batch_normalization_594", "trainable": true, "dtype": "float32", "axis": -1, "momentum": 0.99, "epsilon": 0.001, "center": true, "scale": true, "beta_initializer": {"module": "keras.initializers", "class_name": "Zeros", "config": {}, "registered_name": null}, "gamma_initializer": {"module": "keras.initializers", "class_name": "Ones", "config": {}, "registered_name": null}, "moving_mean_initializer": {"module": "keras.initializers", "class_name": "Zeros", "config": {}, "registered_name": null}, "moving_variance_initializer": {"module": "keras.initializers", "class_name": "Ones", "config": {}, "registered_name": null}, "beta_regularizer": null, "gamma_regularizer": null, "beta_constraint": null, "gamma_constraint": null, "synchronized": false}, "name": "batch_normalization_594", "inbound_nodes": [{"args": [{"class_name": "__keras_tensor__", "config": {"shape": [null, 32, 32, 64], "dtype": "float32", "keras_history": ["conv2d_590", 0, 0]}}], "kwargs": {"mask": null}}]}, {"class_name": "Add", "config": {"name": "add_282", "trainable": true, "dtype": "float32"}, "name": "add_282", "inbound_nodes": [{"args": [[{"class_name": "__keras_tensor__", "config": {"shape": [null, 32, 32, 64], "dtype": "float32", "keras_history": ["add_281", 0, 0]}}, {"class_name": "__keras_tensor__", "config": {"shape": [null, 32, 32, 64], "dtype": "float32", "keras_history": ["batch_normalization_594", 0, 0]}}]], "kwargs": {}}]}, {"class_name": "Conv2D", "config": {"name": "conv2d_591", "trainable": true, "dtype": "float32", "filters": 64, "kernel_size": [3, 3], "strides": [1, 1], "padding": "same", "data_format": "channels_last", "dilation_rate": [1, 1], "groups": 1, "activation": "linear", "use_bias": true, "kernel_initializer": {"module": "keras.initializers", "class_name": "GlorotUniform", "config": {"seed": null}, "registered_name": null}, "bias_initializer": {"module": "keras.initializers", "class_name": "Zeros", "config": {}, "registered_name": null}, "kernel_regularizer": null, "bias_regularizer": null, "activity_regularizer": null, "kernel_constraint": null, "bias_constraint": null}, "name": "conv2d_591", "inbound_nodes": [{"args": [{"class_name": "__keras_tensor__", "config": {"shape": [null, 32, 32, 64], "dtype": "float32", "keras_history": ["add_282", 0, 0]}}], "kwargs": {}}]}, {"class_name": "LeakyReLU", "config": {"name": "leaky_re_lu_312", "trainable": true, "dtype": "float32", "negative_slope": 0.2}, "name": "leaky_re_lu_312", "inbound_nodes": [{"args": [{"class_name": "__keras_tensor__", "config": {"shape": [null, 32, 32, 64], "dtype": "float32", "keras_history": ["conv2d_591", 0, 0]}}], "kwargs": {}}]}, {"class_name": "BatchNormalization", "config": {"name": "batch_normalization_595", "trainable": true, "dtype": "float32", "axis": -1, "momentum": 0.99, "epsilon": 0.001, "center": true, "scale": true, "beta_initializer": {"module": "keras.initializers", "class_name": "Zeros", "config": {}, "registered_name": null}, "gamma_initializer": {"module": "keras.initializers", "class_name": "Ones", "config": {}, "registered_name": null}, "moving_mean_initializer": {"module": "keras.initializers", "class_name": "Zeros", "config": {}, "registered_name": null}, "moving_variance_initializer": {"module": "keras.initializers", "class_name": "Ones", "config": {}, "registered_name": null}, "beta_regularizer": null, "gamma_regularizer": null, "beta_constraint": null, "gamma_constraint": null, "synchronized": false}, "name": "batch_normalization_595", "inbound_nodes": [{"args": [{"class_name": "__keras_tensor__", "config": {"shape": [null, 32, 32, 64], "dtype": "float32", "keras_history": ["leaky_re_lu_312", 0, 0]}}], "kwargs": {"mask": null}}]}, {"class_name": "Conv2D", "config": {"name": "conv2d_592", "trainable": true, "dtype": "float32", "filters": 64, "kernel_size": [3, 3], "strides": [1, 1], "padding": "same", "data_format": "channels_last", "dilation_rate": [1, 1], "groups": 1, "activation": "linear", "use_bias": true, "kernel_initializer": {"module": "keras.initializers", "class_name": "GlorotUniform", "config": {"seed": null}, "registered_name": null}, "bias_initializer": {"module": "keras.initializers", "class_name": "Zeros", "config": {}, "registered_name": null}, "kernel_regularizer": null, "bias_regularizer": null, "activity_regularizer": null, "kernel_constraint": null, "bias_constraint": null}, "name": "conv2d_592", "inbound_nodes": [{"args": [{"class_name": "__keras_tensor__", "config": {"shape": [null, 32, 32, 64], "dtype": "float32", "keras_history": ["batch_normalization_595", 0, 0]}}], "kwargs": {}}]}, {"class_name": "BatchNormalization", "config": {"name": "batch_normalization_596", "trainable": true, "dtype": "float32", "axis": -1, "momentum": 0.99, "epsilon": 0.001, "center": true, "scale": true, "beta_initializer": {"module": "keras.initializers", "class_name": "Zeros", "config": {}, "registered_name": null}, "gamma_initializer": {"module": "keras.initializers", "class_name": "Ones", "config": {}, "registered_name": null}, "moving_mean_initializer": {"module": "keras.initializers", "class_name": "Zeros", "config": {}, "registered_name": null}, "moving_variance_initializer": {"module": "keras.initializers", "class_name": "Ones", "config": {}, "registered_name": null}, "beta_regularizer": null, "gamma_regularizer": null, "beta_constraint": null, "gamma_constraint": null, "synchronized": false}, "name": "batch_normalization_596", "inbound_nodes": [{"args": [{"class_name": "__keras_tensor__", "config": {"shape": [null, 32, 32, 64], "dtype": "float32", "keras_history": ["conv2d_592", 0, 0]}}], "kwargs": {"mask": null}}]}, {"class_name": "Add", "config": {"name": "add_283", "trainable": true, "dtype": "float32"}, "name": "add_283", "inbound_nodes": [{"args": [[{"class_name": "__keras_tensor__", "config": {"shape": [null, 32, 32, 64], "dtype": "float32", "keras_history": ["add_282", 0, 0]}}, {"class_name": "__keras_tensor__", "config": {"shape": [null, 32, 32, 64], "dtype": "float32", "keras_history": ["batch_normalization_596", 0, 0]}}]], "kwargs": {}}]}, {"class_name": "Conv2D", "config": {"name": "conv2d_593", "trainable": true, "dtype": "float32", "filters": 64, "kernel_size": [3, 3], "strides": [1, 1], "padding": "same", "data_format": "channels_last", "dilation_rate": [1, 1], "groups": 1, "activation": "linear", "use_bias": true, "kernel_initializer": {"module": "keras.initializers", "class_name": "GlorotUniform", "config": {"seed": null}, "registered_name": null}, "bias_initializer": {"module": "keras.initializers", "class_name": "Zeros", "config": {}, "registered_name": null}, "kernel_regularizer": null, "bias_regularizer": null, "activity_regularizer": null, "kernel_constraint": null, "bias_constraint": null}, "name": "conv2d_593", "inbound_nodes": [{"args": [{"class_name": "__keras_tensor__", "config": {"shape": [null, 32, 32, 64], "dtype": "float32", "keras_history": ["add_283", 0, 0]}}], "kwargs": {}}]}, {"class_name": "LeakyReLU", "config": {"name": "leaky_re_lu_313", "trainable": true, "dtype": "float32", "negative_slope": 0.2}, "name": "leaky_re_lu_313", "inbound_nodes": [{"args": [{"class_name": "__keras_tensor__", "config": {"shape": [null, 32, 32, 64], "dtype": "float32", "keras_history": ["conv2d_593", 0, 0]}}], "kwargs": {}}]}, {"class_name": "BatchNormalization", "config": {"name": "batch_normalization_597", "trainable": true, "dtype": "float32", "axis": -1, "momentum": 0.99, "epsilon": 0.001, "center": true, "scale": true, "beta_initializer": {"module": "keras.initializers", "class_name": "Zeros", "config": {}, "registered_name": null}, "gamma_initializer": {"module": "keras.initializers", "class_name": "Ones", "config": {}, "registered_name": null}, "moving_mean_initializer": {"module": "keras.initializers", "class_name": "Zeros", "config": {}, "registered_name": null}, "moving_variance_initializer": {"module": "keras.initializers", "class_name": "Ones", "config": {}, "registered_name": null}, "beta_regularizer": null, "gamma_regularizer": null, "beta_constraint": null, "gamma_constraint": null, "synchronized": false}, "name": "batch_normalization_597", "inbound_nodes": [{"args": [{"class_name": "__keras_tensor__", "config": {"shape": [null, 32, 32, 64], "dtype": "float32", "keras_history": ["leaky_re_lu_313", 0, 0]}}], "kwargs": {"mask": null}}]}, {"class_name": "Conv2D", "config": {"name": "conv2d_594", "trainable": true, "dtype": "float32", "filters": 64, "kernel_size": [3, 3], "strides": [1, 1], "padding": "same", "data_format": "channels_last", "dilation_rate": [1, 1], "groups": 1, "activation": "linear", "use_bias": true, "kernel_initializer": {"module": "keras.initializers", "class_name": "GlorotUniform", "config": {"seed": null}, "registered_name": null}, "bias_initializer": {"module": "keras.initializers", "class_name": "Zeros", "config": {}, "registered_name": null}, "kernel_regularizer": null, "bias_regularizer": null, "activity_regularizer": null, "kernel_constraint": null, "bias_constraint": null}, "name": "conv2d_594", "inbound_nodes": [{"args": [{"class_name": "__keras_tensor__", "config": {"shape": [null, 32, 32, 64], "dtype": "float32", "keras_history": ["batch_normalization_597", 0, 0]}}], "kwargs": {}}]}, {"class_name": "BatchNormalization", "config": {"name": "batch_normalization_598", "trainable": true, "dtype": "float32", "axis": -1, "momentum": 0.99, "epsilon": 0.001, "center": true, "scale": true, "beta_initializer": {"module": "keras.initializers", "class_name": "Zeros", "config": {}, "registered_name": null}, "gamma_initializer": {"module": "keras.initializers", "class_name": "Ones", "config": {}, "registered_name": null}, "moving_mean_initializer": {"module": "keras.initializers", "class_name": "Zeros", "config": {}, "registered_name": null}, "moving_variance_initializer": {"module": "keras.initializers", "class_name": "Ones", "config": {}, "registered_name": null}, "beta_regularizer": null, "gamma_regularizer": null, "beta_constraint": null, "gamma_constraint": null, "synchronized": false}, "name": "batch_normalization_598", "inbound_nodes": [{"args": [{"class_name": "__keras_tensor__", "config": {"shape": [null, 32, 32, 64], "dtype": "float32", "keras_history": ["conv2d_594", 0, 0]}}], "kwargs": {"mask": null}}]}, {"class_name": "Add", "config": {"name": "add_284", "trainable": true, "dtype": "float32"}, "name": "add_284", "inbound_nodes": [{"args": [[{"class_name": "__keras_tensor__", "config": {"shape": [null, 32, 32, 64], "dtype": "float32", "keras_history": ["add_283", 0, 0]}}, {"class_name": "__keras_tensor__", "config": {"shape": [null, 32, 32, 64], "dtype": "float32", "keras_history": ["batch_normalization_598", 0, 0]}}]], "kwargs": {}}]}, {"class_name": "Conv2D", "config": {"name": "conv2d_595", "trainable": true, "dtype": "float32", "filters": 64, "kernel_size": [3, 3], "strides": [1, 1], "padding": "same", "data_format": "channels_last", "dilation_rate": [1, 1], "groups": 1, "activation": "linear", "use_bias": true, "kernel_initializer": {"module": "keras.initializers", "class_name": "GlorotUniform", "config": {"seed": null}, "registered_name": null}, "bias_initializer": {"module": "keras.initializers", "class_name": "Zeros", "config": {}, "registered_name": null}, "kernel_regularizer": null, "bias_regularizer": null, "activity_regularizer": null, "kernel_constraint": null, "bias_constraint": null}, "name": "conv2d_595", "inbound_nodes": [{"args": [{"class_name": "__keras_tensor__", "config": {"shape": [null, 32, 32, 64], "dtype": "float32", "keras_history": ["add_284", 0, 0]}}], "kwargs": {}}]}, {"class_name": "LeakyReLU", "config": {"name": "leaky_re_lu_314", "trainable": true, "dtype": "float32", "negative_slope": 0.2}, "name": "leaky_re_lu_314", "inbound_nodes": [{"args": [{"class_name": "__keras_tensor__", "config": {"shape": [null, 32, 32, 64], "dtype": "float32", "keras_history": ["conv2d_595", 0, 0]}}], "kwargs": {}}]}, {"class_name": "BatchNormalization", "config": {"name": "batch_normalization_599", "trainable": true, "dtype": "float32", "axis": -1, "momentum": 0.99, "epsilon": 0.001, "center": true, "scale": true, "beta_initializer": {"module": "keras.initializers", "class_name": "Zeros", "config": {}, "registered_name": null}, "gamma_initializer": {"module": "keras.initializers", "class_name": "Ones", "config": {}, "registered_name": null}, "moving_mean_initializer": {"module": "keras.initializers", "class_name": "Zeros", "config": {}, "registered_name": null}, "moving_variance_initializer": {"module": "keras.initializers", "class_name": "Ones", "config": {}, "registered_name": null}, "beta_regularizer": null, "gamma_regularizer": null, "beta_constraint": null, "gamma_constraint": null, "synchronized": false}, "name": "batch_normalization_599", "inbound_nodes": [{"args": [{"class_name": "__keras_tensor__", "config": {"shape": [null, 32, 32, 64], "dtype": "float32", "keras_history": ["leaky_re_lu_314", 0, 0]}}], "kwargs": {"mask": null}}]}, {"class_name": "Conv2D", "config": {"name": "conv2d_596", "trainable": true, "dtype": "float32", "filters": 64, "kernel_size": [3, 3], "strides": [1, 1], "padding": "same", "data_format": "channels_last", "dilation_rate": [1, 1], "groups": 1, "activation": "linear", "use_bias": true, "kernel_initializer": {"module": "keras.initializers", "class_name": "GlorotUniform", "config": {"seed": null}, "registered_name": null}, "bias_initializer": {"module": "keras.initializers", "class_name": "Zeros", "config": {}, "registered_name": null}, "kernel_regularizer": null, "bias_regularizer": null, "activity_regularizer": null, "kernel_constraint": null, "bias_constraint": null}, "name": "conv2d_596", "inbound_nodes": [{"args": [{"class_name": "__keras_tensor__", "config": {"shape": [null, 32, 32, 64], "dtype": "float32", "keras_history": ["batch_normalization_599", 0, 0]}}], "kwargs": {}}]}, {"class_name": "BatchNormalization", "config": {"name": "batch_normalization_600", "trainable": true, "dtype": "float32", "axis": -1, "momentum": 0.99, "epsilon": 0.001, "center": true, "scale": true, "beta_initializer": {"module": "keras.initializers", "class_name": "Zeros", "config": {}, "registered_name": null}, "gamma_initializer": {"module": "keras.initializers", "class_name": "Ones", "config": {}, "registered_name": null}, "moving_mean_initializer": {"module": "keras.initializers", "class_name": "Zeros", "config": {}, "registered_name": null}, "moving_variance_initializer": {"module": "keras.initializers", "class_name": "Ones", "config": {}, "registered_name": null}, "beta_regularizer": null, "gamma_regularizer": null, "beta_constraint": null, "gamma_constraint": null, "synchronized": false}, "name": "batch_normalization_600", "inbound_nodes": [{"args": [{"class_name": "__keras_tensor__", "config": {"shape": [null, 32, 32, 64], "dtype": "float32", "keras_history": ["conv2d_596", 0, 0]}}], "kwargs": {"mask": null}}]}, {"class_name": "Add", "config": {"name": "add_285", "trainable": true, "dtype": "float32"}, "name": "add_285", "inbound_nodes": [{"args": [[{"class_name": "__keras_tensor__", "config": {"shape": [null, 32, 32, 64], "dtype": "float32", "keras_history": ["add_284", 0, 0]}}, {"class_name": "__keras_tensor__", "config": {"shape": [null, 32, 32, 64], "dtype": "float32", "keras_history": ["batch_normalization_600", 0, 0]}}]], "kwargs": {}}]}, {"class_name": "Conv2D", "config": {"name": "conv2d_597", "trainable": true, "dtype": "float32", "filters": 64, "kernel_size": [3, 3], "strides": [1, 1], "padding": "same", "data_format": "channels_last", "dilation_rate": [1, 1], "groups": 1, "activation": "linear", "use_bias": true, "kernel_initializer": {"module": "keras.initializers", "class_name": "GlorotUniform", "config": {"seed": null}, "registered_name": null}, "bias_initializer": {"module": "keras.initializers", "class_name": "Zeros", "config": {}, "registered_name": null}, "kernel_regularizer": null, "bias_regularizer": null, "activity_regularizer": null, "kernel_constraint": null, "bias_constraint": null}, "name": "conv2d_597", "inbound_nodes": [{"args": [{"class_name": "__keras_tensor__", "config": {"shape": [null, 32, 32, 64], "dtype": "float32", "keras_history": ["add_285", 0, 0]}}], "kwargs": {}}]}, {"class_name": "LeakyReLU", "config": {"name": "leaky_re_lu_315", "trainable": true, "dtype": "float32", "negative_slope": 0.2}, "name": "leaky_re_lu_315", "inbound_nodes": [{"args": [{"class_name": "__keras_tensor__", "config": {"shape": [null, 32, 32, 64], "dtype": "float32", "keras_history": ["conv2d_597", 0, 0]}}], "kwargs": {}}]}, {"class_name": "BatchNormalization", "config": {"name": "batch_normalization_601", "trainable": true, "dtype": "float32", "axis": -1, "momentum": 0.99, "epsilon": 0.001, "center": true, "scale": true, "beta_initializer": {"module": "keras.initializers", "class_name": "Zeros", "config": {}, "registered_name": null}, "gamma_initializer": {"module": "keras.initializers", "class_name": "Ones", "config": {}, "registered_name": null}, "moving_mean_initializer": {"module": "keras.initializers", "class_name": "Zeros", "config": {}, "registered_name": null}, "moving_variance_initializer": {"module": "keras.initializers", "class_name": "Ones", "config": {}, "registered_name": null}, "beta_regularizer": null, "gamma_regularizer": null, "beta_constraint": null, "gamma_constraint": null, "synchronized": false}, "name": "batch_normalization_601", "inbound_nodes": [{"args": [{"class_name": "__keras_tensor__", "config": {"shape": [null, 32, 32, 64], "dtype": "float32", "keras_history": ["leaky_re_lu_315", 0, 0]}}], "kwargs": {"mask": null}}]}, {"class_name": "Conv2D", "config": {"name": "conv2d_598", "trainable": true, "dtype": "float32", "filters": 64, "kernel_size": [3, 3], "strides": [1, 1], "padding": "same", "data_format": "channels_last", "dilation_rate": [1, 1], "groups": 1, "activation": "linear", "use_bias": true, "kernel_initializer": {"module": "keras.initializers", "class_name": "GlorotUniform", "config": {"seed": null}, "registered_name": null}, "bias_initializer": {"module": "keras.initializers", "class_name": "Zeros", "config": {}, "registered_name": null}, "kernel_regularizer": null, "bias_regularizer": null, "activity_regularizer": null, "kernel_constraint": null, "bias_constraint": null}, "name": "conv2d_598", "inbound_nodes": [{"args": [{"class_name": "__keras_tensor__", "config": {"shape": [null, 32, 32, 64], "dtype": "float32", "keras_history": ["batch_normalization_601", 0, 0]}}], "kwargs": {}}]}, {"class_name": "BatchNormalization", "config": {"name": "batch_normalization_602", "trainable": true, "dtype": "float32", "axis": -1, "momentum": 0.99, "epsilon": 0.001, "center": true, "scale": true, "beta_initializer": {"module": "keras.initializers", "class_name": "Zeros", "config": {}, "registered_name": null}, "gamma_initializer": {"module": "keras.initializers", "class_name": "Ones", "config": {}, "registered_name": null}, "moving_mean_initializer": {"module": "keras.initializers", "class_name": "Zeros", "config": {}, "registered_name": null}, "moving_variance_initializer": {"module": "keras.initializers", "class_name": "Ones", "config": {}, "registered_name": null}, "beta_regularizer": null, "gamma_regularizer": null, "beta_constraint": null, "gamma_constraint": null, "synchronized": false}, "name": "batch_normalization_602", "inbound_nodes": [{"args": [{"class_name": "__keras_tensor__", "config": {"shape": [null, 32, 32, 64], "dtype": "float32", "keras_history": ["conv2d_598", 0, 0]}}], "kwargs": {"mask": null}}]}, {"class_name": "Add", "config": {"name": "add_286", "trainable": true, "dtype": "float32"}, "name": "add_286", "inbound_nodes": [{"args": [[{"class_name": "__keras_tensor__", "config": {"shape": [null, 32, 32, 64], "dtype": "float32", "keras_history": ["add_285", 0, 0]}}, {"class_name": "__keras_tensor__", "config": {"shape": [null, 32, 32, 64], "dtype": "float32", "keras_history": ["batch_normalization_602", 0, 0]}}]], "kwargs": {}}]}, {"class_name": "Conv2D", "config": {"name": "conv2d_599", "trainable": true, "dtype": "float32", "filters": 64, "kernel_size": [3, 3], "strides": [1, 1], "padding": "same", "data_format": "channels_last", "dilation_rate": [1, 1], "groups": 1, "activation": "linear", "use_bias": true, "kernel_initializer": {"module": "keras.initializers", "class_name": "GlorotUniform", "config": {"seed": null}, "registered_name": null}, "bias_initializer": {"module": "keras.initializers", "class_name": "Zeros", "config": {}, "registered_name": null}, "kernel_regularizer": null, "bias_regularizer": null, "activity_regularizer": null, "kernel_constraint": null, "bias_constraint": null}, "name": "conv2d_599", "inbound_nodes": [{"args": [{"class_name": "__keras_tensor__", "config": {"shape": [null, 32, 32, 64], "dtype": "float32", "keras_history": ["add_286", 0, 0]}}], "kwargs": {}}]}, {"class_name": "LeakyReLU", "config": {"name": "leaky_re_lu_316", "trainable": true, "dtype": "float32", "negative_slope": 0.2}, "name": "leaky_re_lu_316", "inbound_nodes": [{"args": [{"class_name": "__keras_tensor__", "config": {"shape": [null, 32, 32, 64], "dtype": "float32", "keras_history": ["conv2d_599", 0, 0]}}], "kwargs": {}}]}, {"class_name": "BatchNormalization", "config": {"name": "batch_normalization_603", "trainable": true, "dtype": "float32", "axis": -1, "momentum": 0.99, "epsilon": 0.001, "center": true, "scale": true, "beta_initializer": {"module": "keras.initializers", "class_name": "Zeros", "config": {}, "registered_name": null}, "gamma_initializer": {"module": "keras.initializers", "class_name": "Ones", "config": {}, "registered_name": null}, "moving_mean_initializer": {"module": "keras.initializers", "class_name": "Zeros", "config": {}, "registered_name": null}, "moving_variance_initializer": {"module": "keras.initializers", "class_name": "Ones", "config": {}, "registered_name": null}, "beta_regularizer": null, "gamma_regularizer": null, "beta_constraint": null, "gamma_constraint": null, "synchronized": false}, "name": "batch_normalization_603", "inbound_nodes": [{"args": [{"class_name": "__keras_tensor__", "config": {"shape": [null, 32, 32, 64], "dtype": "float32", "keras_history": ["leaky_re_lu_316", 0, 0]}}], "kwargs": {"mask": null}}]}, {"class_name": "Conv2D", "config": {"name": "conv2d_600", "trainable": true, "dtype": "float32", "filters": 64, "kernel_size": [3, 3], "strides": [1, 1], "padding": "same", "data_format": "channels_last", "dilation_rate": [1, 1], "groups": 1, "activation": "linear", "use_bias": true, "kernel_initializer": {"module": "keras.initializers", "class_name": "GlorotUniform", "config": {"seed": null}, "registered_name": null}, "bias_initializer": {"module": "keras.initializers", "class_name": "Zeros", "config": {}, "registered_name": null}, "kernel_regularizer": null, "bias_regularizer": null, "activity_regularizer": null, "kernel_constraint": null, "bias_constraint": null}, "name": "conv2d_600", "inbound_nodes": [{"args": [{"class_name": "__keras_tensor__", "config": {"shape": [null, 32, 32, 64], "dtype": "float32", "keras_history": ["batch_normalization_603", 0, 0]}}], "kwargs": {}}]}, {"class_name": "BatchNormalization", "config": {"name": "batch_normalization_604", "trainable": true, "dtype": "float32", "axis": -1, "momentum": 0.99, "epsilon": 0.001, "center": true, "scale": true, "beta_initializer": {"module": "keras.initializers", "class_name": "Zeros", "config": {}, "registered_name": null}, "gamma_initializer": {"module": "keras.initializers", "class_name": "Ones", "config": {}, "registered_name": null}, "moving_mean_initializer": {"module": "keras.initializers", "class_name": "Zeros", "config": {}, "registered_name": null}, "moving_variance_initializer": {"module": "keras.initializers", "class_name": "Ones", "config": {}, "registered_name": null}, "beta_regularizer": null, "gamma_regularizer": null, "beta_constraint": null, "gamma_constraint": null, "synchronized": false}, "name": "batch_normalization_604", "inbound_nodes": [{"args": [{"class_name": "__keras_tensor__", "config": {"shape": [null, 32, 32, 64], "dtype": "float32", "keras_history": ["conv2d_600", 0, 0]}}], "kwargs": {"mask": null}}]}, {"class_name": "Add", "config": {"name": "add_287", "trainable": true, "dtype": "float32"}, "name": "add_287", "inbound_nodes": [{"args": [[{"class_name": "__keras_tensor__", "config": {"shape": [null, 32, 32, 64], "dtype": "float32", "keras_history": ["add_286", 0, 0]}}, {"class_name": "__keras_tensor__", "config": {"shape": [null, 32, 32, 64], "dtype": "float32", "keras_history": ["batch_normalization_604", 0, 0]}}]], "kwargs": {}}]}, {"class_name": "Conv2D", "config": {"name": "conv2d_601", "trainable": true, "dtype": "float32", "filters": 64, "kernel_size": [3, 3], "strides": [1, 1], "padding": "same", "data_format": "channels_last", "dilation_rate": [1, 1], "groups": 1, "activation": "linear", "use_bias": true, "kernel_initializer": {"module": "keras.initializers", "class_name": "GlorotUniform", "config": {"seed": null}, "registered_name": null}, "bias_initializer": {"module": "keras.initializers", "class_name": "Zeros", "config": {}, "registered_name": null}, "kernel_regularizer": null, "bias_regularizer": null, "activity_regularizer": null, "kernel_constraint": null, "bias_constraint": null}, "name": "conv2d_601", "inbound_nodes": [{"args": [{"class_name": "__keras_tensor__", "config": {"shape": [null, 32, 32, 64], "dtype": "float32", "keras_history": ["add_287", 0, 0]}}], "kwargs": {}}]}, {"class_name": "LeakyReLU", "config": {"name": "leaky_re_lu_317", "trainable": true, "dtype": "float32", "negative_slope": 0.2}, "name": "leaky_re_lu_317", "inbound_nodes": [{"args": [{"class_name": "__keras_tensor__", "config": {"shape": [null, 32, 32, 64], "dtype": "float32", "keras_history": ["conv2d_601", 0, 0]}}], "kwargs": {}}]}, {"class_name": "BatchNormalization", "config": {"name": "batch_normalization_605", "trainable": true, "dtype": "float32", "axis": -1, "momentum": 0.99, "epsilon": 0.001, "center": true, "scale": true, "beta_initializer": {"module": "keras.initializers", "class_name": "Zeros", "config": {}, "registered_name": null}, "gamma_initializer": {"module": "keras.initializers", "class_name": "Ones", "config": {}, "registered_name": null}, "moving_mean_initializer": {"module": "keras.initializers", "class_name": "Zeros", "config": {}, "registered_name": null}, "moving_variance_initializer": {"module": "keras.initializers", "class_name": "Ones", "config": {}, "registered_name": null}, "beta_regularizer": null, "gamma_regularizer": null, "beta_constraint": null, "gamma_constraint": null, "synchronized": false}, "name": "batch_normalization_605", "inbound_nodes": [{"args": [{"class_name": "__keras_tensor__", "config": {"shape": [null, 32, 32, 64], "dtype": "float32", "keras_history": ["leaky_re_lu_317", 0, 0]}}], "kwargs": {"mask": null}}]}, {"class_name": "Conv2D", "config": {"name": "conv2d_602", "trainable": true, "dtype": "float32", "filters": 64, "kernel_size": [3, 3], "strides": [1, 1], "padding": "same", "data_format": "channels_last", "dilation_rate": [1, 1], "groups": 1, "activation": "linear", "use_bias": true, "kernel_initializer": {"module": "keras.initializers", "class_name": "GlorotUniform", "config": {"seed": null}, "registered_name": null}, "bias_initializer": {"module": "keras.initializers", "class_name": "Zeros", "config": {}, "registered_name": null}, "kernel_regularizer": null, "bias_regularizer": null, "activity_regularizer": null, "kernel_constraint": null, "bias_constraint": null}, "name": "conv2d_602", "inbound_nodes": [{"args": [{"class_name": "__keras_tensor__", "config": {"shape": [null, 32, 32, 64], "dtype": "float32", "keras_history": ["batch_normalization_605", 0, 0]}}], "kwargs": {}}]}, {"class_name": "BatchNormalization", "config": {"name": "batch_normalization_606", "trainable": true, "dtype": "float32", "axis": -1, "momentum": 0.99, "epsilon": 0.001, "center": true, "scale": true, "beta_initializer": {"module": "keras.initializers", "class_name": "Zeros", "config": {}, "registered_name": null}, "gamma_initializer": {"module": "keras.initializers", "class_name": "Ones", "config": {}, "registered_name": null}, "moving_mean_initializer": {"module": "keras.initializers", "class_name": "Zeros", "config": {}, "registered_name": null}, "moving_variance_initializer": {"module": "keras.initializers", "class_name": "Ones", "config": {}, "registered_name": null}, "beta_regularizer": null, "gamma_regularizer": null, "beta_constraint": null, "gamma_constraint": null, "synchronized": false}, "name": "batch_normalization_606", "inbound_nodes": [{"args": [{"class_name": "__keras_tensor__", "config": {"shape": [null, 32, 32, 64], "dtype": "float32", "keras_history": ["conv2d_602", 0, 0]}}], "kwargs": {"mask": null}}]}, {"class_name": "Add", "config": {"name": "add_288", "trainable": true, "dtype": "float32"}, "name": "add_288", "inbound_nodes": [{"args": [[{"class_name": "__keras_tensor__", "config": {"shape": [null, 32, 32, 64], "dtype": "float32", "keras_history": ["add_287", 0, 0]}}, {"class_name": "__keras_tensor__", "config": {"shape": [null, 32, 32, 64], "dtype": "float32", "keras_history": ["batch_normalization_606", 0, 0]}}]], "kwargs": {}}]}, {"class_name": "Conv2D", "config": {"name": "conv2d_603", "trainable": true, "dtype": "float32", "filters": 64, "kernel_size": [3, 3], "strides": [1, 1], "padding": "same", "data_format": "channels_last", "dilation_rate": [1, 1], "groups": 1, "activation": "linear", "use_bias": true, "kernel_initializer": {"module": "keras.initializers", "class_name": "GlorotUniform", "config": {"seed": null}, "registered_name": null}, "bias_initializer": {"module": "keras.initializers", "class_name": "Zeros", "config": {}, "registered_name": null}, "kernel_regularizer": null, "bias_regularizer": null, "activity_regularizer": null, "kernel_constraint": null, "bias_constraint": null}, "name": "conv2d_603", "inbound_nodes": [{"args": [{"class_name": "__keras_tensor__", "config": {"shape": [null, 32, 32, 64], "dtype": "float32", "keras_history": ["add_288", 0, 0]}}], "kwargs": {}}]}, {"class_name": "LeakyReLU", "config": {"name": "leaky_re_lu_318", "trainable": true, "dtype": "float32", "negative_slope": 0.2}, "name": "leaky_re_lu_318", "inbound_nodes": [{"args": [{"class_name": "__keras_tensor__", "config": {"shape": [null, 32, 32, 64], "dtype": "float32", "keras_history": ["conv2d_603", 0, 0]}}], "kwargs": {}}]}, {"class_name": "BatchNormalization", "config": {"name": "batch_normalization_607", "trainable": true, "dtype": "float32", "axis": -1, "momentum": 0.99, "epsilon": 0.001, "center": true, "scale": true, "beta_initializer": {"module": "keras.initializers", "class_name": "Zeros", "config": {}, "registered_name": null}, "gamma_initializer": {"module": "keras.initializers", "class_name": "Ones", "config": {}, "registered_name": null}, "moving_mean_initializer": {"module": "keras.initializers", "class_name": "Zeros", "config": {}, "registered_name": null}, "moving_variance_initializer": {"module": "keras.initializers", "class_name": "Ones", "config": {}, "registered_name": null}, "beta_regularizer": null, "gamma_regularizer": null, "beta_constraint": null, "gamma_constraint": null, "synchronized": false}, "name": "batch_normalization_607", "inbound_nodes": [{"args": [{"class_name": "__keras_tensor__", "config": {"shape": [null, 32, 32, 64], "dtype": "float32", "keras_history": ["leaky_re_lu_318", 0, 0]}}], "kwargs": {"mask": null}}]}, {"class_name": "Conv2D", "config": {"name": "conv2d_604", "trainable": true, "dtype": "float32", "filters": 64, "kernel_size": [3, 3], "strides": [1, 1], "padding": "same", "data_format": "channels_last", "dilation_rate": [1, 1], "groups": 1, "activation": "linear", "use_bias": true, "kernel_initializer": {"module": "keras.initializers", "class_name": "GlorotUniform", "config": {"seed": null}, "registered_name": null}, "bias_initializer": {"module": "keras.initializers", "class_name": "Zeros", "config": {}, "registered_name": null}, "kernel_regularizer": null, "bias_regularizer": null, "activity_regularizer": null, "kernel_constraint": null, "bias_constraint": null}, "name": "conv2d_604", "inbound_nodes": [{"args": [{"class_name": "__keras_tensor__", "config": {"shape": [null, 32, 32, 64], "dtype": "float32", "keras_history": ["batch_normalization_607", 0, 0]}}], "kwargs": {}}]}, {"class_name": "BatchNormalization", "config": {"name": "batch_normalization_608", "trainable": true, "dtype": "float32", "axis": -1, "momentum": 0.99, "epsilon": 0.001, "center": true, "scale": true, "beta_initializer": {"module": "keras.initializers", "class_name": "Zeros", "config": {}, "registered_name": null}, "gamma_initializer": {"module": "keras.initializers", "class_name": "Ones", "config": {}, "registered_name": null}, "moving_mean_initializer": {"module": "keras.initializers", "class_name": "Zeros", "config": {}, "registered_name": null}, "moving_variance_initializer": {"module": "keras.initializers", "class_name": "Ones", "config": {}, "registered_name": null}, "beta_regularizer": null, "gamma_regularizer": null, "beta_constraint": null, "gamma_constraint": null, "synchronized": false}, "name": "batch_normalization_608", "inbound_nodes": [{"args": [{"class_name": "__keras_tensor__", "config": {"shape": [null, 32, 32, 64], "dtype": "float32", "keras_history": ["conv2d_604", 0, 0]}}], "kwargs": {"mask": null}}]}, {"class_name": "Add", "config": {"name": "add_289", "trainable": true, "dtype": "float32"}, "name": "add_289", "inbound_nodes": [{"args": [[{"class_name": "__keras_tensor__", "config": {"shape": [null, 32, 32, 64], "dtype": "float32", "keras_history": ["add_288", 0, 0]}}, {"class_name": "__keras_tensor__", "config": {"shape": [null, 32, 32, 64], "dtype": "float32", "keras_history": ["batch_normalization_608", 0, 0]}}]], "kwargs": {}}]}, {"class_name": "Conv2D", "config": {"name": "conv2d_605", "trainable": true, "dtype": "float32", "filters": 64, "kernel_size": [3, 3], "strides": [1, 1], "padding": "same", "data_format": "channels_last", "dilation_rate": [1, 1], "groups": 1, "activation": "linear", "use_bias": true, "kernel_initializer": {"module": "keras.initializers", "class_name": "GlorotUniform", "config": {"seed": null}, "registered_name": null}, "bias_initializer": {"module": "keras.initializers", "class_name": "Zeros", "config": {}, "registered_name": null}, "kernel_regularizer": null, "bias_regularizer": null, "activity_regularizer": null, "kernel_constraint": null, "bias_constraint": null}, "name": "conv2d_605", "inbound_nodes": [{"args": [{"class_name": "__keras_tensor__", "config": {"shape": [null, 32, 32, 64], "dtype": "float32", "keras_history": ["add_289", 0, 0]}}], "kwargs": {}}]}, {"class_name": "LeakyReLU", "config": {"name": "leaky_re_lu_319", "trainable": true, "dtype": "float32", "negative_slope": 0.2}, "name": "leaky_re_lu_319", "inbound_nodes": [{"args": [{"class_name": "__keras_tensor__", "config": {"shape": [null, 32, 32, 64], "dtype": "float32", "keras_history": ["conv2d_605", 0, 0]}}], "kwargs": {}}]}, {"class_name": "BatchNormalization", "config": {"name": "batch_normalization_609", "trainable": true, "dtype": "float32", "axis": -1, "momentum": 0.99, "epsilon": 0.001, "center": true, "scale": true, "beta_initializer": {"module": "keras.initializers", "class_name": "Zeros", "config": {}, "registered_name": null}, "gamma_initializer": {"module": "keras.initializers", "class_name": "Ones", "config": {}, "registered_name": null}, "moving_mean_initializer": {"module": "keras.initializers", "class_name": "Zeros", "config": {}, "registered_name": null}, "moving_variance_initializer": {"module": "keras.initializers", "class_name": "Ones", "config": {}, "registered_name": null}, "beta_regularizer": null, "gamma_regularizer": null, "beta_constraint": null, "gamma_constraint": null, "synchronized": false}, "name": "batch_normalization_609", "inbound_nodes": [{"args": [{"class_name": "__keras_tensor__", "config": {"shape": [null, 32, 32, 64], "dtype": "float32", "keras_history": ["leaky_re_lu_319", 0, 0]}}], "kwargs": {"mask": null}}]}, {"class_name": "Conv2D", "config": {"name": "conv2d_606", "trainable": true, "dtype": "float32", "filters": 64, "kernel_size": [3, 3], "strides": [1, 1], "padding": "same", "data_format": "channels_last", "dilation_rate": [1, 1], "groups": 1, "activation": "linear", "use_bias": true, "kernel_initializer": {"module": "keras.initializers", "class_name": "GlorotUniform", "config": {"seed": null}, "registered_name": null}, "bias_initializer": {"module": "keras.initializers", "class_name": "Zeros", "config": {}, "registered_name": null}, "kernel_regularizer": null, "bias_regularizer": null, "activity_regularizer": null, "kernel_constraint": null, "bias_constraint": null}, "name": "conv2d_606", "inbound_nodes": [{"args": [{"class_name": "__keras_tensor__", "config": {"shape": [null, 32, 32, 64], "dtype": "float32", "keras_history": ["batch_normalization_609", 0, 0]}}], "kwargs": {}}]}, {"class_name": "BatchNormalization", "config": {"name": "batch_normalization_610", "trainable": true, "dtype": "float32", "axis": -1, "momentum": 0.99, "epsilon": 0.001, "center": true, "scale": true, "beta_initializer": {"module": "keras.initializers", "class_name": "Zeros", "config": {}, "registered_name": null}, "gamma_initializer": {"module": "keras.initializers", "class_name": "Ones", "config": {}, "registered_name": null}, "moving_mean_initializer": {"module": "keras.initializers", "class_name": "Zeros", "config": {}, "registered_name": null}, "moving_variance_initializer": {"module": "keras.initializers", "class_name": "Ones", "config": {}, "registered_name": null}, "beta_regularizer": null, "gamma_regularizer": null, "beta_constraint": null, "gamma_constraint": null, "synchronized": false}, "name": "batch_normalization_610", "inbound_nodes": [{"args": [{"class_name": "__keras_tensor__", "config": {"shape": [null, 32, 32, 64], "dtype": "float32", "keras_history": ["conv2d_606", 0, 0]}}], "kwargs": {"mask": null}}]}, {"class_name": "Add", "config": {"name": "add_290", "trainable": true, "dtype": "float32"}, "name": "add_290", "inbound_nodes": [{"args": [[{"class_name": "__keras_tensor__", "config": {"shape": [null, 32, 32, 64], "dtype": "float32", "keras_history": ["add_289", 0, 0]}}, {"class_name": "__keras_tensor__", "config": {"shape": [null, 32, 32, 64], "dtype": "float32", "keras_history": ["batch_normalization_610", 0, 0]}}]], "kwargs": {}}]}, {"class_name": "Conv2D", "config": {"name": "conv2d_607", "trainable": true, "dtype": "float32", "filters": 64, "kernel_size": [3, 3], "strides": [1, 1], "padding": "same", "data_format": "channels_last", "dilation_rate": [1, 1], "groups": 1, "activation": "linear", "use_bias": true, "kernel_initializer": {"module": "keras.initializers", "class_name": "GlorotUniform", "config": {"seed": null}, "registered_name": null}, "bias_initializer": {"module": "keras.initializers", "class_name": "Zeros", "config": {}, "registered_name": null}, "kernel_regularizer": null, "bias_regularizer": null, "activity_regularizer": null, "kernel_constraint": null, "bias_constraint": null}, "name": "conv2d_607", "inbound_nodes": [{"args": [{"class_name": "__keras_tensor__", "config": {"shape": [null, 32, 32, 64], "dtype": "float32", "keras_history": ["add_290", 0, 0]}}], "kwargs": {}}]}, {"class_name": "LeakyReLU", "config": {"name": "leaky_re_lu_320", "trainable": true, "dtype": "float32", "negative_slope": 0.2}, "name": "leaky_re_lu_320", "inbound_nodes": [{"args": [{"class_name": "__keras_tensor__", "config": {"shape": [null, 32, 32, 64], "dtype": "float32", "keras_history": ["conv2d_607", 0, 0]}}], "kwargs": {}}]}, {"class_name": "BatchNormalization", "config": {"name": "batch_normalization_611", "trainable": true, "dtype": "float32", "axis": -1, "momentum": 0.99, "epsilon": 0.001, "center": true, "scale": true, "beta_initializer": {"module": "keras.initializers", "class_name": "Zeros", "config": {}, "registered_name": null}, "gamma_initializer": {"module": "keras.initializers", "class_name": "Ones", "config": {}, "registered_name": null}, "moving_mean_initializer": {"module": "keras.initializers", "class_name": "Zeros", "config": {}, "registered_name": null}, "moving_variance_initializer": {"module": "keras.initializers", "class_name": "Ones", "config": {}, "registered_name": null}, "beta_regularizer": null, "gamma_regularizer": null, "beta_constraint": null, "gamma_constraint": null, "synchronized": false}, "name": "batch_normalization_611", "inbound_nodes": [{"args": [{"class_name": "__keras_tensor__", "config": {"shape": [null, 32, 32, 64], "dtype": "float32", "keras_history": ["leaky_re_lu_320", 0, 0]}}], "kwargs": {"mask": null}}]}, {"class_name": "Conv2D", "config": {"name": "conv2d_608", "trainable": true, "dtype": "float32", "filters": 64, "kernel_size": [3, 3], "strides": [1, 1], "padding": "same", "data_format": "channels_last", "dilation_rate": [1, 1], "groups": 1, "activation": "linear", "use_bias": true, "kernel_initializer": {"module": "keras.initializers", "class_name": "GlorotUniform", "config": {"seed": null}, "registered_name": null}, "bias_initializer": {"module": "keras.initializers", "class_name": "Zeros", "config": {}, "registered_name": null}, "kernel_regularizer": null, "bias_regularizer": null, "activity_regularizer": null, "kernel_constraint": null, "bias_constraint": null}, "name": "conv2d_608", "inbound_nodes": [{"args": [{"class_name": "__keras_tensor__", "config": {"shape": [null, 32, 32, 64], "dtype": "float32", "keras_history": ["batch_normalization_611", 0, 0]}}], "kwargs": {}}]}, {"class_name": "BatchNormalization", "config": {"name": "batch_normalization_612", "trainable": true, "dtype": "float32", "axis": -1, "momentum": 0.99, "epsilon": 0.001, "center": true, "scale": true, "beta_initializer": {"module": "keras.initializers", "class_name": "Zeros", "config": {}, "registered_name": null}, "gamma_initializer": {"module": "keras.initializers", "class_name": "Ones", "config": {}, "registered_name": null}, "moving_mean_initializer": {"module": "keras.initializers", "class_name": "Zeros", "config": {}, "registered_name": null}, "moving_variance_initializer": {"module": "keras.initializers", "class_name": "Ones", "config": {}, "registered_name": null}, "beta_regularizer": null, "gamma_regularizer": null, "beta_constraint": null, "gamma_constraint": null, "synchronized": false}, "name": "batch_normalization_612", "inbound_nodes": [{"args": [{"class_name": "__keras_tensor__", "config": {"shape": [null, 32, 32, 64], "dtype": "float32", "keras_history": ["conv2d_608", 0, 0]}}], "kwargs": {"mask": null}}]}, {"class_name": "Add", "config": {"name": "add_291", "trainable": true, "dtype": "float32"}, "name": "add_291", "inbound_nodes": [{"args": [[{"class_name": "__keras_tensor__", "config": {"shape": [null, 32, 32, 64], "dtype": "float32", "keras_history": ["add_290", 0, 0]}}, {"class_name": "__keras_tensor__", "config": {"shape": [null, 32, 32, 64], "dtype": "float32", "keras_history": ["batch_normalization_612", 0, 0]}}]], "kwargs": {}}]}, {"class_name": "Conv2D", "config": {"name": "conv2d_609", "trainable": true, "dtype": "float32", "filters": 64, "kernel_size": [3, 3], "strides": [1, 1], "padding": "same", "data_format": "channels_last", "dilation_rate": [1, 1], "groups": 1, "activation": "linear", "use_bias": true, "kernel_initializer": {"module": "keras.initializers", "class_name": "GlorotUniform", "config": {"seed": null}, "registered_name": null}, "bias_initializer": {"module": "keras.initializers", "class_name": "Zeros", "config": {}, "registered_name": null}, "kernel_regularizer": null, "bias_regularizer": null, "activity_regularizer": null, "kernel_constraint": null, "bias_constraint": null}, "name": "conv2d_609", "inbound_nodes": [{"args": [{"class_name": "__keras_tensor__", "config": {"shape": [null, 32, 32, 64], "dtype": "float32", "keras_history": ["add_291", 0, 0]}}], "kwargs": {}}]}, {"class_name": "LeakyReLU", "config": {"name": "leaky_re_lu_321", "trainable": true, "dtype": "float32", "negative_slope": 0.2}, "name": "leaky_re_lu_321", "inbound_nodes": [{"args": [{"class_name": "__keras_tensor__", "config": {"shape": [null, 32, 32, 64], "dtype": "float32", "keras_history": ["conv2d_609", 0, 0]}}], "kwargs": {}}]}, {"class_name": "BatchNormalization", "config": {"name": "batch_normalization_613", "trainable": true, "dtype": "float32", "axis": -1, "momentum": 0.99, "epsilon": 0.001, "center": true, "scale": true, "beta_initializer": {"module": "keras.initializers", "class_name": "Zeros", "config": {}, "registered_name": null}, "gamma_initializer": {"module": "keras.initializers", "class_name": "Ones", "config": {}, "registered_name": null}, "moving_mean_initializer": {"module": "keras.initializers", "class_name": "Zeros", "config": {}, "registered_name": null}, "moving_variance_initializer": {"module": "keras.initializers", "class_name": "Ones", "config": {}, "registered_name": null}, "beta_regularizer": null, "gamma_regularizer": null, "beta_constraint": null, "gamma_constraint": null, "synchronized": false}, "name": "batch_normalization_613", "inbound_nodes": [{"args": [{"class_name": "__keras_tensor__", "config": {"shape": [null, 32, 32, 64], "dtype": "float32", "keras_history": ["leaky_re_lu_321", 0, 0]}}], "kwargs": {"mask": null}}]}, {"class_name": "Conv2D", "config": {"name": "conv2d_610", "trainable": true, "dtype": "float32", "filters": 64, "kernel_size": [3, 3], "strides": [1, 1], "padding": "same", "data_format": "channels_last", "dilation_rate": [1, 1], "groups": 1, "activation": "linear", "use_bias": true, "kernel_initializer": {"module": "keras.initializers", "class_name": "GlorotUniform", "config": {"seed": null}, "registered_name": null}, "bias_initializer": {"module": "keras.initializers", "class_name": "Zeros", "config": {}, "registered_name": null}, "kernel_regularizer": null, "bias_regularizer": null, "activity_regularizer": null, "kernel_constraint": null, "bias_constraint": null}, "name": "conv2d_610", "inbound_nodes": [{"args": [{"class_name": "__keras_tensor__", "config": {"shape": [null, 32, 32, 64], "dtype": "float32", "keras_history": ["batch_normalization_613", 0, 0]}}], "kwargs": {}}]}, {"class_name": "BatchNormalization", "config": {"name": "batch_normalization_614", "trainable": true, "dtype": "float32", "axis": -1, "momentum": 0.99, "epsilon": 0.001, "center": true, "scale": true, "beta_initializer": {"module": "keras.initializers", "class_name": "Zeros", "config": {}, "registered_name": null}, "gamma_initializer": {"module": "keras.initializers", "class_name": "Ones", "config": {}, "registered_name": null}, "moving_mean_initializer": {"module": "keras.initializers", "class_name": "Zeros", "config": {}, "registered_name": null}, "moving_variance_initializer": {"module": "keras.initializers", "class_name": "Ones", "config": {}, "registered_name": null}, "beta_regularizer": null, "gamma_regularizer": null, "beta_constraint": null, "gamma_constraint": null, "synchronized": false}, "name": "batch_normalization_614", "inbound_nodes": [{"args": [{"class_name": "__keras_tensor__", "config": {"shape": [null, 32, 32, 64], "dtype": "float32", "keras_history": ["conv2d_610", 0, 0]}}], "kwargs": {"mask": null}}]}, {"class_name": "Add", "config": {"name": "add_292", "trainable": true, "dtype": "float32"}, "name": "add_292", "inbound_nodes": [{"args": [[{"class_name": "__keras_tensor__", "config": {"shape": [null, 32, 32, 64], "dtype": "float32", "keras_history": ["add_291", 0, 0]}}, {"class_name": "__keras_tensor__", "config": {"shape": [null, 32, 32, 64], "dtype": "float32", "keras_history": ["batch_normalization_614", 0, 0]}}]], "kwargs": {}}]}, {"class_name": "Conv2D", "config": {"name": "conv2d_611", "trainable": true, "dtype": "float32", "filters": 64, "kernel_size": [3, 3], "strides": [1, 1], "padding": "same", "data_format": "channels_last", "dilation_rate": [1, 1], "groups": 1, "activation": "linear", "use_bias": true, "kernel_initializer": {"module": "keras.initializers", "class_name": "GlorotUniform", "config": {"seed": null}, "registered_name": null}, "bias_initializer": {"module": "keras.initializers", "class_name": "Zeros", "config": {}, "registered_name": null}, "kernel_regularizer": null, "bias_regularizer": null, "activity_regularizer": null, "kernel_constraint": null, "bias_constraint": null}, "name": "conv2d_611", "inbound_nodes": [{"args": [{"class_name": "__keras_tensor__", "config": {"shape": [null, 32, 32, 64], "dtype": "float32", "keras_history": ["add_292", 0, 0]}}], "kwargs": {}}]}, {"class_name": "LeakyReLU", "config": {"name": "leaky_re_lu_322", "trainable": true, "dtype": "float32", "negative_slope": 0.2}, "name": "leaky_re_lu_322", "inbound_nodes": [{"args": [{"class_name": "__keras_tensor__", "config": {"shape": [null, 32, 32, 64], "dtype": "float32", "keras_history": ["conv2d_611", 0, 0]}}], "kwargs": {}}]}, {"class_name": "BatchNormalization", "config": {"name": "batch_normalization_615", "trainable": true, "dtype": "float32", "axis": -1, "momentum": 0.99, "epsilon": 0.001, "center": true, "scale": true, "beta_initializer": {"module": "keras.initializers", "class_name": "Zeros", "config": {}, "registered_name": null}, "gamma_initializer": {"module": "keras.initializers", "class_name": "Ones", "config": {}, "registered_name": null}, "moving_mean_initializer": {"module": "keras.initializers", "class_name": "Zeros", "config": {}, "registered_name": null}, "moving_variance_initializer": {"module": "keras.initializers", "class_name": "Ones", "config": {}, "registered_name": null}, "beta_regularizer": null, "gamma_regularizer": null, "beta_constraint": null, "gamma_constraint": null, "synchronized": false}, "name": "batch_normalization_615", "inbound_nodes": [{"args": [{"class_name": "__keras_tensor__", "config": {"shape": [null, 32, 32, 64], "dtype": "float32", "keras_history": ["leaky_re_lu_322", 0, 0]}}], "kwargs": {"mask": null}}]}, {"class_name": "Conv2D", "config": {"name": "conv2d_612", "trainable": true, "dtype": "float32", "filters": 64, "kernel_size": [3, 3], "strides": [1, 1], "padding": "same", "data_format": "channels_last", "dilation_rate": [1, 1], "groups": 1, "activation": "linear", "use_bias": true, "kernel_initializer": {"module": "keras.initializers", "class_name": "GlorotUniform", "config": {"seed": null}, "registered_name": null}, "bias_initializer": {"module": "keras.initializers", "class_name": "Zeros", "config": {}, "registered_name": null}, "kernel_regularizer": null, "bias_regularizer": null, "activity_regularizer": null, "kernel_constraint": null, "bias_constraint": null}, "name": "conv2d_612", "inbound_nodes": [{"args": [{"class_name": "__keras_tensor__", "config": {"shape": [null, 32, 32, 64], "dtype": "float32", "keras_history": ["batch_normalization_615", 0, 0]}}], "kwargs": {}}]}, {"class_name": "BatchNormalization", "config": {"name": "batch_normalization_616", "trainable": true, "dtype": "float32", "axis": -1, "momentum": 0.99, "epsilon": 0.001, "center": true, "scale": true, "beta_initializer": {"module": "keras.initializers", "class_name": "Zeros", "config": {}, "registered_name": null}, "gamma_initializer": {"module": "keras.initializers", "class_name": "Ones", "config": {}, "registered_name": null}, "moving_mean_initializer": {"module": "keras.initializers", "class_name": "Zeros", "config": {}, "registered_name": null}, "moving_variance_initializer": {"module": "keras.initializers", "class_name": "Ones", "config": {}, "registered_name": null}, "beta_regularizer": null, "gamma_regularizer": null, "beta_constraint": null, "gamma_constraint": null, "synchronized": false}, "name": "batch_normalization_616", "inbound_nodes": [{"args": [{"class_name": "__keras_tensor__", "config": {"shape": [null, 32, 32, 64], "dtype": "float32", "keras_history": ["conv2d_612", 0, 0]}}], "kwargs": {"mask": null}}]}, {"class_name": "Add", "config": {"name": "add_293", "trainable": true, "dtype": "float32"}, "name": "add_293", "inbound_nodes": [{"args": [[{"class_name": "__keras_tensor__", "config": {"shape": [null, 32, 32, 64], "dtype": "float32", "keras_history": ["add_292", 0, 0]}}, {"class_name": "__keras_tensor__", "config": {"shape": [null, 32, 32, 64], "dtype": "float32", "keras_history": ["batch_normalization_616", 0, 0]}}]], "kwargs": {}}]}, {"class_name": "Conv2D", "config": {"name": "conv2d_613", "trainable": true, "dtype": "float32", "filters": 128, "kernel_size": [3, 3], "strides": [1, 1], "padding": "same", "data_format": "channels_last", "dilation_rate": [1, 1], "groups": 1, "activation": "linear", "use_bias": true, "kernel_initializer": {"module": "keras.initializers", "class_name": "GlorotUniform", "config": {"seed": null}, "registered_name": null}, "bias_initializer": {"module": "keras.initializers", "class_name": "Zeros", "config": {}, "registered_name": null}, "kernel_regularizer": null, "bias_regularizer": null, "activity_regularizer": null, "kernel_constraint": null, "bias_constraint": null}, "name": "conv2d_613", "inbound_nodes": [{"args": [{"class_name": "__keras_tensor__", "config": {"shape": [null, 32, 32, 64], "dtype": "float32", "keras_history": ["add_293", 0, 0]}}], "kwargs": {}}]}, {"class_name": "LeakyReLU", "config": {"name": "leaky_re_lu_323", "trainable": true, "dtype": "float32", "negative_slope": 0.2}, "name": "leaky_re_lu_323", "inbound_nodes": [{"args": [{"class_name": "__keras_tensor__", "config": {"shape": [null, 32, 32, 128], "dtype": "float32", "keras_history": ["conv2d_613", 0, 0]}}], "kwargs": {}}]}, {"class_name": "BatchNormalization", "config": {"name": "batch_normalization_617", "trainable": true, "dtype": "float32", "axis": -1, "momentum": 0.99, "epsilon": 0.001, "center": true, "scale": true, "beta_initializer": {"module": "keras.initializers", "class_name": "Zeros", "config": {}, "registered_name": null}, "gamma_initializer": {"module": "keras.initializers", "class_name": "Ones", "config": {}, "registered_name": null}, "moving_mean_initializer": {"module": "keras.initializers", "class_name": "Zeros", "config": {}, "registered_name": null}, "moving_variance_initializer": {"module": "keras.initializers", "class_name": "Ones", "config": {}, "registered_name": null}, "beta_regularizer": null, "gamma_regularizer": null, "beta_constraint": null, "gamma_constraint": null, "synchronized": false}, "name": "batch_normalization_617", "inbound_nodes": [{"args": [{"class_name": "__keras_tensor__", "config": {"shape": [null, 32, 32, 128], "dtype": "float32", "keras_history": ["leaky_re_lu_323", 0, 0]}}], "kwargs": {"mask": null}}]}, {"class_name": "Conv2D", "config": {"name": "conv2d_614", "trainable": true, "dtype": "float32", "filters": 128, "kernel_size": [3, 3], "strides": [1, 1], "padding": "same", "data_format": "channels_last", "dilation_rate": [1, 1], "groups": 1, "activation": "linear", "use_bias": true, "kernel_initializer": {"module": "keras.initializers", "class_name": "GlorotUniform", "config": {"seed": null}, "registered_name": null}, "bias_initializer": {"module": "keras.initializers", "class_name": "Zeros", "config": {}, "registered_name": null}, "kernel_regularizer": null, "bias_regularizer": null, "activity_regularizer": null, "kernel_constraint": null, "bias_constraint": null}, "name": "conv2d_614", "inbound_nodes": [{"args": [{"class_name": "__keras_tensor__", "config": {"shape": [null, 32, 32, 128], "dtype": "float32", "keras_history": ["batch_normalization_617", 0, 0]}}], "kwargs": {}}]}, {"class_name": "LeakyReLU", "config": {"name": "leaky_re_lu_324", "trainable": true, "dtype": "float32", "negative_slope": 0.2}, "name": "leaky_re_lu_324", "inbound_nodes": [{"args": [{"class_name": "__keras_tensor__", "config": {"shape": [null, 32, 32, 128], "dtype": "float32", "keras_history": ["conv2d_614", 0, 0]}}], "kwargs": {}}]}, {"class_name": "BatchNormalization", "config": {"name": "batch_normalization_618", "trainable": true, "dtype": "float32", "axis": -1, "momentum": 0.99, "epsilon": 0.001, "center": true, "scale": true, "beta_initializer": {"module": "keras.initializers", "class_name": "Zeros", "config": {}, "registered_name": null}, "gamma_initializer": {"module": "keras.initializers", "class_name": "Ones", "config": {}, "registered_name": null}, "moving_mean_initializer": {"module": "keras.initializers", "class_name": "Zeros", "config": {}, "registered_name": null}, "moving_variance_initializer": {"module": "keras.initializers", "class_name": "Ones", "config": {}, "registered_name": null}, "beta_regularizer": null, "gamma_regularizer": null, "beta_constraint": null, "gamma_constraint": null, "synchronized": false}, "name": "batch_normalization_618", "inbound_nodes": [{"args": [{"class_name": "__keras_tensor__", "config": {"shape": [null, 32, 32, 128], "dtype": "float32", "keras_history": ["leaky_re_lu_324", 0, 0]}}], "kwargs": {"mask": null}}]}, {"class_name": "Conv2D", "config": {"name": "conv2d_615", "trainable": true, "dtype": "float32", "filters": 128, "kernel_size": [3, 3], "strides": [1, 1], "padding": "same", "data_format": "channels_last", "dilation_rate": [1, 1], "groups": 1, "activation": "linear", "use_bias": true, "kernel_initializer": {"module": "keras.initializers", "class_name": "GlorotUniform", "config": {"seed": null}, "registered_name": null}, "bias_initializer": {"module": "keras.initializers", "class_name": "Zeros", "config": {}, "registered_name": null}, "kernel_regularizer": null, "bias_regularizer": null, "activity_regularizer": null, "kernel_constraint": null, "bias_constraint": null}, "name": "conv2d_615", "inbound_nodes": [{"args": [{"class_name": "__keras_tensor__", "config": {"shape": [null, 32, 32, 128], "dtype": "float32", "keras_history": ["batch_normalization_618", 0, 0]}}], "kwargs": {}}]}, {"class_name": "BatchNormalization", "config": {"name": "batch_normalization_619", "trainable": true, "dtype": "float32", "axis": -1, "momentum": 0.99, "epsilon": 0.001, "center": true, "scale": true, "beta_initializer": {"module": "keras.initializers", "class_name": "Zeros", "config": {}, "registered_name": null}, "gamma_initializer": {"module": "keras.initializers", "class_name": "Ones", "config": {}, "registered_name": null}, "moving_mean_initializer": {"module": "keras.initializers", "class_name": "Zeros", "config": {}, "registered_name": null}, "moving_variance_initializer": {"module": "keras.initializers", "class_name": "Ones", "config": {}, "registered_name": null}, "beta_regularizer": null, "gamma_regularizer": null, "beta_constraint": null, "gamma_constraint": null, "synchronized": false}, "name": "batch_normalization_619", "inbound_nodes": [{"args": [{"class_name": "__keras_tensor__", "config": {"shape": [null, 32, 32, 128], "dtype": "float32", "keras_history": ["conv2d_615", 0, 0]}}], "kwargs": {"mask": null}}]}, {"class_name": "Add", "config": {"name": "add_294", "trainable": true, "dtype": "float32"}, "name": "add_294", "inbound_nodes": [{"args": [[{"class_name": "__keras_tensor__", "config": {"shape": [null, 32, 32, 128], "dtype": "float32", "keras_history": ["batch_normalization_617", 0, 0]}}, {"class_name": "__keras_tensor__", "config": {"shape": [null, 32, 32, 128], "dtype": "float32", "keras_history": ["batch_normalization_619", 0, 0]}}]], "kwargs": {}}]}, {"class_name": "Conv2D", "config": {"name": "conv2d_616", "trainable": true, "dtype": "float32", "filters": 128, "kernel_size": [3, 3], "strides": [1, 1], "padding": "same", "data_format": "channels_last", "dilation_rate": [1, 1], "groups": 1, "activation": "linear", "use_bias": true, "kernel_initializer": {"module": "keras.initializers", "class_name": "GlorotUniform", "config": {"seed": null}, "registered_name": null}, "bias_initializer": {"module": "keras.initializers", "class_name": "Zeros", "config": {}, "registered_name": null}, "kernel_regularizer": null, "bias_regularizer": null, "activity_regularizer": null, "kernel_constraint": null, "bias_constraint": null}, "name": "conv2d_616", "inbound_nodes": [{"args": [{"class_name": "__keras_tensor__", "config": {"shape": [null, 32, 32, 128], "dtype": "float32", "keras_history": ["add_294", 0, 0]}}], "kwargs": {}}]}, {"class_name": "LeakyReLU", "config": {"name": "leaky_re_lu_325", "trainable": true, "dtype": "float32", "negative_slope": 0.2}, "name": "leaky_re_lu_325", "inbound_nodes": [{"args": [{"class_name": "__keras_tensor__", "config": {"shape": [null, 32, 32, 128], "dtype": "float32", "keras_history": ["conv2d_616", 0, 0]}}], "kwargs": {}}]}, {"class_name": "BatchNormalization", "config": {"name": "batch_normalization_620", "trainable": true, "dtype": "float32", "axis": -1, "momentum": 0.99, "epsilon": 0.001, "center": true, "scale": true, "beta_initializer": {"module": "keras.initializers", "class_name": "Zeros", "config": {}, "registered_name": null}, "gamma_initializer": {"module": "keras.initializers", "class_name": "Ones", "config": {}, "registered_name": null}, "moving_mean_initializer": {"module": "keras.initializers", "class_name": "Zeros", "config": {}, "registered_name": null}, "moving_variance_initializer": {"module": "keras.initializers", "class_name": "Ones", "config": {}, "registered_name": null}, "beta_regularizer": null, "gamma_regularizer": null, "beta_constraint": null, "gamma_constraint": null, "synchronized": false}, "name": "batch_normalization_620", "inbound_nodes": [{"args": [{"class_name": "__keras_tensor__", "config": {"shape": [null, 32, 32, 128], "dtype": "float32", "keras_history": ["leaky_re_lu_325", 0, 0]}}], "kwargs": {"mask": null}}]}, {"class_name": "Conv2D", "config": {"name": "conv2d_617", "trainable": true, "dtype": "float32", "filters": 128, "kernel_size": [3, 3], "strides": [1, 1], "padding": "same", "data_format": "channels_last", "dilation_rate": [1, 1], "groups": 1, "activation": "linear", "use_bias": true, "kernel_initializer": {"module": "keras.initializers", "class_name": "GlorotUniform", "config": {"seed": null}, "registered_name": null}, "bias_initializer": {"module": "keras.initializers", "class_name": "Zeros", "config": {}, "registered_name": null}, "kernel_regularizer": null, "bias_regularizer": null, "activity_regularizer": null, "kernel_constraint": null, "bias_constraint": null}, "name": "conv2d_617", "inbound_nodes": [{"args": [{"class_name": "__keras_tensor__", "config": {"shape": [null, 32, 32, 128], "dtype": "float32", "keras_history": ["batch_normalization_620", 0, 0]}}], "kwargs": {}}]}, {"class_name": "BatchNormalization", "config": {"name": "batch_normalization_621", "trainable": true, "dtype": "float32", "axis": -1, "momentum": 0.99, "epsilon": 0.001, "center": true, "scale": true, "beta_initializer": {"module": "keras.initializers", "class_name": "Zeros", "config": {}, "registered_name": null}, "gamma_initializer": {"module": "keras.initializers", "class_name": "Ones", "config": {}, "registered_name": null}, "moving_mean_initializer": {"module": "keras.initializers", "class_name": "Zeros", "config": {}, "registered_name": null}, "moving_variance_initializer": {"module": "keras.initializers", "class_name": "Ones", "config": {}, "registered_name": null}, "beta_regularizer": null, "gamma_regularizer": null, "beta_constraint": null, "gamma_constraint": null, "synchronized": false}, "name": "batch_normalization_621", "inbound_nodes": [{"args": [{"class_name": "__keras_tensor__", "config": {"shape": [null, 32, 32, 128], "dtype": "float32", "keras_history": ["conv2d_617", 0, 0]}}], "kwargs": {"mask": null}}]}, {"class_name": "Add", "config": {"name": "add_295", "trainable": true, "dtype": "float32"}, "name": "add_295", "inbound_nodes": [{"args": [[{"class_name": "__keras_tensor__", "config": {"shape": [null, 32, 32, 128], "dtype": "float32", "keras_history": ["add_294", 0, 0]}}, {"class_name": "__keras_tensor__", "config": {"shape": [null, 32, 32, 128], "dtype": "float32", "keras_history": ["batch_normalization_621", 0, 0]}}]], "kwargs": {}}]}, {"class_name": "Conv2D", "config": {"name": "conv2d_618", "trainable": true, "dtype": "float32", "filters": 128, "kernel_size": [3, 3], "strides": [1, 1], "padding": "same", "data_format": "channels_last", "dilation_rate": [1, 1], "groups": 1, "activation": "linear", "use_bias": true, "kernel_initializer": {"module": "keras.initializers", "class_name": "GlorotUniform", "config": {"seed": null}, "registered_name": null}, "bias_initializer": {"module": "keras.initializers", "class_name": "Zeros", "config": {}, "registered_name": null}, "kernel_regularizer": null, "bias_regularizer": null, "activity_regularizer": null, "kernel_constraint": null, "bias_constraint": null}, "name": "conv2d_618", "inbound_nodes": [{"args": [{"class_name": "__keras_tensor__", "config": {"shape": [null, 32, 32, 128], "dtype": "float32", "keras_history": ["add_295", 0, 0]}}], "kwargs": {}}]}, {"class_name": "LeakyReLU", "config": {"name": "leaky_re_lu_326", "trainable": true, "dtype": "float32", "negative_slope": 0.2}, "name": "leaky_re_lu_326", "inbound_nodes": [{"args": [{"class_name": "__keras_tensor__", "config": {"shape": [null, 32, 32, 128], "dtype": "float32", "keras_history": ["conv2d_618", 0, 0]}}], "kwargs": {}}]}, {"class_name": "BatchNormalization", "config": {"name": "batch_normalization_622", "trainable": true, "dtype": "float32", "axis": -1, "momentum": 0.99, "epsilon": 0.001, "center": true, "scale": true, "beta_initializer": {"module": "keras.initializers", "class_name": "Zeros", "config": {}, "registered_name": null}, "gamma_initializer": {"module": "keras.initializers", "class_name": "Ones", "config": {}, "registered_name": null}, "moving_mean_initializer": {"module": "keras.initializers", "class_name": "Zeros", "config": {}, "registered_name": null}, "moving_variance_initializer": {"module": "keras.initializers", "class_name": "Ones", "config": {}, "registered_name": null}, "beta_regularizer": null, "gamma_regularizer": null, "beta_constraint": null, "gamma_constraint": null, "synchronized": false}, "name": "batch_normalization_622", "inbound_nodes": [{"args": [{"class_name": "__keras_tensor__", "config": {"shape": [null, 32, 32, 128], "dtype": "float32", "keras_history": ["leaky_re_lu_326", 0, 0]}}], "kwargs": {"mask": null}}]}, {"class_name": "Conv2D", "config": {"name": "conv2d_619", "trainable": true, "dtype": "float32", "filters": 128, "kernel_size": [3, 3], "strides": [1, 1], "padding": "same", "data_format": "channels_last", "dilation_rate": [1, 1], "groups": 1, "activation": "linear", "use_bias": true, "kernel_initializer": {"module": "keras.initializers", "class_name": "GlorotUniform", "config": {"seed": null}, "registered_name": null}, "bias_initializer": {"module": "keras.initializers", "class_name": "Zeros", "config": {}, "registered_name": null}, "kernel_regularizer": null, "bias_regularizer": null, "activity_regularizer": null, "kernel_constraint": null, "bias_constraint": null}, "name": "conv2d_619", "inbound_nodes": [{"args": [{"class_name": "__keras_tensor__", "config": {"shape": [null, 32, 32, 128], "dtype": "float32", "keras_history": ["batch_normalization_622", 0, 0]}}], "kwargs": {}}]}, {"class_name": "BatchNormalization", "config": {"name": "batch_normalization_623", "trainable": true, "dtype": "float32", "axis": -1, "momentum": 0.99, "epsilon": 0.001, "center": true, "scale": true, "beta_initializer": {"module": "keras.initializers", "class_name": "Zeros", "config": {}, "registered_name": null}, "gamma_initializer": {"module": "keras.initializers", "class_name": "Ones", "config": {}, "registered_name": null}, "moving_mean_initializer": {"module": "keras.initializers", "class_name": "Zeros", "config": {}, "registered_name": null}, "moving_variance_initializer": {"module": "keras.initializers", "class_name": "Ones", "config": {}, "registered_name": null}, "beta_regularizer": null, "gamma_regularizer": null, "beta_constraint": null, "gamma_constraint": null, "synchronized": false}, "name": "batch_normalization_623", "inbound_nodes": [{"args": [{"class_name": "__keras_tensor__", "config": {"shape": [null, 32, 32, 128], "dtype": "float32", "keras_history": ["conv2d_619", 0, 0]}}], "kwargs": {"mask": null}}]}, {"class_name": "Add", "config": {"name": "add_296", "trainable": true, "dtype": "float32"}, "name": "add_296", "inbound_nodes": [{"args": [[{"class_name": "__keras_tensor__", "config": {"shape": [null, 32, 32, 128], "dtype": "float32", "keras_history": ["add_295", 0, 0]}}, {"class_name": "__keras_tensor__", "config": {"shape": [null, 32, 32, 128], "dtype": "float32", "keras_history": ["batch_normalization_623", 0, 0]}}]], "kwargs": {}}]}, {"class_name": "Conv2D", "config": {"name": "conv2d_620", "trainable": true, "dtype": "float32", "filters": 128, "kernel_size": [3, 3], "strides": [1, 1], "padding": "same", "data_format": "channels_last", "dilation_rate": [1, 1], "groups": 1, "activation": "linear", "use_bias": true, "kernel_initializer": {"module": "keras.initializers", "class_name": "GlorotUniform", "config": {"seed": null}, "registered_name": null}, "bias_initializer": {"module": "keras.initializers", "class_name": "Zeros", "config": {}, "registered_name": null}, "kernel_regularizer": null, "bias_regularizer": null, "activity_regularizer": null, "kernel_constraint": null, "bias_constraint": null}, "name": "conv2d_620", "inbound_nodes": [{"args": [{"class_name": "__keras_tensor__", "config": {"shape": [null, 32, 32, 128], "dtype": "float32", "keras_history": ["add_296", 0, 0]}}], "kwargs": {}}]}, {"class_name": "LeakyReLU", "config": {"name": "leaky_re_lu_327", "trainable": true, "dtype": "float32", "negative_slope": 0.2}, "name": "leaky_re_lu_327", "inbound_nodes": [{"args": [{"class_name": "__keras_tensor__", "config": {"shape": [null, 32, 32, 128], "dtype": "float32", "keras_history": ["conv2d_620", 0, 0]}}], "kwargs": {}}]}, {"class_name": "BatchNormalization", "config": {"name": "batch_normalization_624", "trainable": true, "dtype": "float32", "axis": -1, "momentum": 0.99, "epsilon": 0.001, "center": true, "scale": true, "beta_initializer": {"module": "keras.initializers", "class_name": "Zeros", "config": {}, "registered_name": null}, "gamma_initializer": {"module": "keras.initializers", "class_name": "Ones", "config": {}, "registered_name": null}, "moving_mean_initializer": {"module": "keras.initializers", "class_name": "Zeros", "config": {}, "registered_name": null}, "moving_variance_initializer": {"module": "keras.initializers", "class_name": "Ones", "config": {}, "registered_name": null}, "beta_regularizer": null, "gamma_regularizer": null, "beta_constraint": null, "gamma_constraint": null, "synchronized": false}, "name": "batch_normalization_624", "inbound_nodes": [{"args": [{"class_name": "__keras_tensor__", "config": {"shape": [null, 32, 32, 128], "dtype": "float32", "keras_history": ["leaky_re_lu_327", 0, 0]}}], "kwargs": {"mask": null}}]}, {"class_name": "Conv2D", "config": {"name": "conv2d_621", "trainable": true, "dtype": "float32", "filters": 128, "kernel_size": [3, 3], "strides": [1, 1], "padding": "same", "data_format": "channels_last", "dilation_rate": [1, 1], "groups": 1, "activation": "linear", "use_bias": true, "kernel_initializer": {"module": "keras.initializers", "class_name": "GlorotUniform", "config": {"seed": null}, "registered_name": null}, "bias_initializer": {"module": "keras.initializers", "class_name": "Zeros", "config": {}, "registered_name": null}, "kernel_regularizer": null, "bias_regularizer": null, "activity_regularizer": null, "kernel_constraint": null, "bias_constraint": null}, "name": "conv2d_621", "inbound_nodes": [{"args": [{"class_name": "__keras_tensor__", "config": {"shape": [null, 32, 32, 128], "dtype": "float32", "keras_history": ["batch_normalization_624", 0, 0]}}], "kwargs": {}}]}, {"class_name": "BatchNormalization", "config": {"name": "batch_normalization_625", "trainable": true, "dtype": "float32", "axis": -1, "momentum": 0.99, "epsilon": 0.001, "center": true, "scale": true, "beta_initializer": {"module": "keras.initializers", "class_name": "Zeros", "config": {}, "registered_name": null}, "gamma_initializer": {"module": "keras.initializers", "class_name": "Ones", "config": {}, "registered_name": null}, "moving_mean_initializer": {"module": "keras.initializers", "class_name": "Zeros", "config": {}, "registered_name": null}, "moving_variance_initializer": {"module": "keras.initializers", "class_name": "Ones", "config": {}, "registered_name": null}, "beta_regularizer": null, "gamma_regularizer": null, "beta_constraint": null, "gamma_constraint": null, "synchronized": false}, "name": "batch_normalization_625", "inbound_nodes": [{"args": [{"class_name": "__keras_tensor__", "config": {"shape": [null, 32, 32, 128], "dtype": "float32", "keras_history": ["conv2d_621", 0, 0]}}], "kwargs": {"mask": null}}]}, {"class_name": "Add", "config": {"name": "add_297", "trainable": true, "dtype": "float32"}, "name": "add_297", "inbound_nodes": [{"args": [[{"class_name": "__keras_tensor__", "config": {"shape": [null, 32, 32, 128], "dtype": "float32", "keras_history": ["add_296", 0, 0]}}, {"class_name": "__keras_tensor__", "config": {"shape": [null, 32, 32, 128], "dtype": "float32", "keras_history": ["batch_normalization_625", 0, 0]}}]], "kwargs": {}}]}, {"class_name": "Conv2D", "config": {"name": "conv2d_622", "trainable": true, "dtype": "float32", "filters": 128, "kernel_size": [3, 3], "strides": [1, 1], "padding": "same", "data_format": "channels_last", "dilation_rate": [1, 1], "groups": 1, "activation": "linear", "use_bias": true, "kernel_initializer": {"module": "keras.initializers", "class_name": "GlorotUniform", "config": {"seed": null}, "registered_name": null}, "bias_initializer": {"module": "keras.initializers", "class_name": "Zeros", "config": {}, "registered_name": null}, "kernel_regularizer": null, "bias_regularizer": null, "activity_regularizer": null, "kernel_constraint": null, "bias_constraint": null}, "name": "conv2d_622", "inbound_nodes": [{"args": [{"class_name": "__keras_tensor__", "config": {"shape": [null, 32, 32, 128], "dtype": "float32", "keras_history": ["add_297", 0, 0]}}], "kwargs": {}}]}, {"class_name": "LeakyReLU", "config": {"name": "leaky_re_lu_328", "trainable": true, "dtype": "float32", "negative_slope": 0.2}, "name": "leaky_re_lu_328", "inbound_nodes": [{"args": [{"class_name": "__keras_tensor__", "config": {"shape": [null, 32, 32, 128], "dtype": "float32", "keras_history": ["conv2d_622", 0, 0]}}], "kwargs": {}}]}, {"class_name": "BatchNormalization", "config": {"name": "batch_normalization_626", "trainable": true, "dtype": "float32", "axis": -1, "momentum": 0.99, "epsilon": 0.001, "center": true, "scale": true, "beta_initializer": {"module": "keras.initializers", "class_name": "Zeros", "config": {}, "registered_name": null}, "gamma_initializer": {"module": "keras.initializers", "class_name": "Ones", "config": {}, "registered_name": null}, "moving_mean_initializer": {"module": "keras.initializers", "class_name": "Zeros", "config": {}, "registered_name": null}, "moving_variance_initializer": {"module": "keras.initializers", "class_name": "Ones", "config": {}, "registered_name": null}, "beta_regularizer": null, "gamma_regularizer": null, "beta_constraint": null, "gamma_constraint": null, "synchronized": false}, "name": "batch_normalization_626", "inbound_nodes": [{"args": [{"class_name": "__keras_tensor__", "config": {"shape": [null, 32, 32, 128], "dtype": "float32", "keras_history": ["leaky_re_lu_328", 0, 0]}}], "kwargs": {"mask": null}}]}, {"class_name": "Conv2D", "config": {"name": "conv2d_623", "trainable": true, "dtype": "float32", "filters": 128, "kernel_size": [3, 3], "strides": [1, 1], "padding": "same", "data_format": "channels_last", "dilation_rate": [1, 1], "groups": 1, "activation": "linear", "use_bias": true, "kernel_initializer": {"module": "keras.initializers", "class_name": "GlorotUniform", "config": {"seed": null}, "registered_name": null}, "bias_initializer": {"module": "keras.initializers", "class_name": "Zeros", "config": {}, "registered_name": null}, "kernel_regularizer": null, "bias_regularizer": null, "activity_regularizer": null, "kernel_constraint": null, "bias_constraint": null}, "name": "conv2d_623", "inbound_nodes": [{"args": [{"class_name": "__keras_tensor__", "config": {"shape": [null, 32, 32, 128], "dtype": "float32", "keras_history": ["batch_normalization_626", 0, 0]}}], "kwargs": {}}]}, {"class_name": "BatchNormalization", "config": {"name": "batch_normalization_627", "trainable": true, "dtype": "float32", "axis": -1, "momentum": 0.99, "epsilon": 0.001, "center": true, "scale": true, "beta_initializer": {"module": "keras.initializers", "class_name": "Zeros", "config": {}, "registered_name": null}, "gamma_initializer": {"module": "keras.initializers", "class_name": "Ones", "config": {}, "registered_name": null}, "moving_mean_initializer": {"module": "keras.initializers", "class_name": "Zeros", "config": {}, "registered_name": null}, "moving_variance_initializer": {"module": "keras.initializers", "class_name": "Ones", "config": {}, "registered_name": null}, "beta_regularizer": null, "gamma_regularizer": null, "beta_constraint": null, "gamma_constraint": null, "synchronized": false}, "name": "batch_normalization_627", "inbound_nodes": [{"args": [{"class_name": "__keras_tensor__", "config": {"shape": [null, 32, 32, 128], "dtype": "float32", "keras_history": ["conv2d_623", 0, 0]}}], "kwargs": {"mask": null}}]}, {"class_name": "Add", "config": {"name": "add_298", "trainable": true, "dtype": "float32"}, "name": "add_298", "inbound_nodes": [{"args": [[{"class_name": "__keras_tensor__", "config": {"shape": [null, 32, 32, 128], "dtype": "float32", "keras_history": ["add_297", 0, 0]}}, {"class_name": "__keras_tensor__", "config": {"shape": [null, 32, 32, 128], "dtype": "float32", "keras_history": ["batch_normalization_627", 0, 0]}}]], "kwargs": {}}]}, {"class_name": "Conv2D", "config": {"name": "conv2d_624", "trainable": true, "dtype": "float32", "filters": 128, "kernel_size": [3, 3], "strides": [1, 1], "padding": "same", "data_format": "channels_last", "dilation_rate": [1, 1], "groups": 1, "activation": "linear", "use_bias": true, "kernel_initializer": {"module": "keras.initializers", "class_name": "GlorotUniform", "config": {"seed": null}, "registered_name": null}, "bias_initializer": {"module": "keras.initializers", "class_name": "Zeros", "config": {}, "registered_name": null}, "kernel_regularizer": null, "bias_regularizer": null, "activity_regularizer": null, "kernel_constraint": null, "bias_constraint": null}, "name": "conv2d_624", "inbound_nodes": [{"args": [{"class_name": "__keras_tensor__", "config": {"shape": [null, 32, 32, 128], "dtype": "float32", "keras_history": ["add_298", 0, 0]}}], "kwargs": {}}]}, {"class_name": "LeakyReLU", "config": {"name": "leaky_re_lu_329", "trainable": true, "dtype": "float32", "negative_slope": 0.2}, "name": "leaky_re_lu_329", "inbound_nodes": [{"args": [{"class_name": "__keras_tensor__", "config": {"shape": [null, 32, 32, 128], "dtype": "float32", "keras_history": ["conv2d_624", 0, 0]}}], "kwargs": {}}]}, {"class_name": "BatchNormalization", "config": {"name": "batch_normalization_628", "trainable": true, "dtype": "float32", "axis": -1, "momentum": 0.99, "epsilon": 0.001, "center": true, "scale": true, "beta_initializer": {"module": "keras.initializers", "class_name": "Zeros", "config": {}, "registered_name": null}, "gamma_initializer": {"module": "keras.initializers", "class_name": "Ones", "config": {}, "registered_name": null}, "moving_mean_initializer": {"module": "keras.initializers", "class_name": "Zeros", "config": {}, "registered_name": null}, "moving_variance_initializer": {"module": "keras.initializers", "class_name": "Ones", "config": {}, "registered_name": null}, "beta_regularizer": null, "gamma_regularizer": null, "beta_constraint": null, "gamma_constraint": null, "synchronized": false}, "name": "batch_normalization_628", "inbound_nodes": [{"args": [{"class_name": "__keras_tensor__", "config": {"shape": [null, 32, 32, 128], "dtype": "float32", "keras_history": ["leaky_re_lu_329", 0, 0]}}], "kwargs": {"mask": null}}]}, {"class_name": "Conv2D", "config": {"name": "conv2d_625", "trainable": true, "dtype": "float32", "filters": 128, "kernel_size": [3, 3], "strides": [1, 1], "padding": "same", "data_format": "channels_last", "dilation_rate": [1, 1], "groups": 1, "activation": "linear", "use_bias": true, "kernel_initializer": {"module": "keras.initializers", "class_name": "GlorotUniform", "config": {"seed": null}, "registered_name": null}, "bias_initializer": {"module": "keras.initializers", "class_name": "Zeros", "config": {}, "registered_name": null}, "kernel_regularizer": null, "bias_regularizer": null, "activity_regularizer": null, "kernel_constraint": null, "bias_constraint": null}, "name": "conv2d_625", "inbound_nodes": [{"args": [{"class_name": "__keras_tensor__", "config": {"shape": [null, 32, 32, 128], "dtype": "float32", "keras_history": ["batch_normalization_628", 0, 0]}}], "kwargs": {}}]}, {"class_name": "BatchNormalization", "config": {"name": "batch_normalization_629", "trainable": true, "dtype": "float32", "axis": -1, "momentum": 0.99, "epsilon": 0.001, "center": true, "scale": true, "beta_initializer": {"module": "keras.initializers", "class_name": "Zeros", "config": {}, "registered_name": null}, "gamma_initializer": {"module": "keras.initializers", "class_name": "Ones", "config": {}, "registered_name": null}, "moving_mean_initializer": {"module": "keras.initializers", "class_name": "Zeros", "config": {}, "registered_name": null}, "moving_variance_initializer": {"module": "keras.initializers", "class_name": "Ones", "config": {}, "registered_name": null}, "beta_regularizer": null, "gamma_regularizer": null, "beta_constraint": null, "gamma_constraint": null, "synchronized": false}, "name": "batch_normalization_629", "inbound_nodes": [{"args": [{"class_name": "__keras_tensor__", "config": {"shape": [null, 32, 32, 128], "dtype": "float32", "keras_history": ["conv2d_625", 0, 0]}}], "kwargs": {"mask": null}}]}, {"class_name": "Add", "config": {"name": "add_299", "trainable": true, "dtype": "float32"}, "name": "add_299", "inbound_nodes": [{"args": [[{"class_name": "__keras_tensor__", "config": {"shape": [null, 32, 32, 128], "dtype": "float32", "keras_history": ["add_298", 0, 0]}}, {"class_name": "__keras_tensor__", "config": {"shape": [null, 32, 32, 128], "dtype": "float32", "keras_history": ["batch_normalization_629", 0, 0]}}]], "kwargs": {}}]}, {"class_name": "Conv2D", "config": {"name": "conv2d_626", "trainable": true, "dtype": "float32", "filters": 128, "kernel_size": [3, 3], "strides": [1, 1], "padding": "same", "data_format": "channels_last", "dilation_rate": [1, 1], "groups": 1, "activation": "linear", "use_bias": true, "kernel_initializer": {"module": "keras.initializers", "class_name": "GlorotUniform", "config": {"seed": null}, "registered_name": null}, "bias_initializer": {"module": "keras.initializers", "class_name": "Zeros", "config": {}, "registered_name": null}, "kernel_regularizer": null, "bias_regularizer": null, "activity_regularizer": null, "kernel_constraint": null, "bias_constraint": null}, "name": "conv2d_626", "inbound_nodes": [{"args": [{"class_name": "__keras_tensor__", "config": {"shape": [null, 32, 32, 128], "dtype": "float32", "keras_history": ["add_299", 0, 0]}}], "kwargs": {}}]}, {"class_name": "LeakyReLU", "config": {"name": "leaky_re_lu_330", "trainable": true, "dtype": "float32", "negative_slope": 0.2}, "name": "leaky_re_lu_330", "inbound_nodes": [{"args": [{"class_name": "__keras_tensor__", "config": {"shape": [null, 32, 32, 128], "dtype": "float32", "keras_history": ["conv2d_626", 0, 0]}}], "kwargs": {}}]}, {"class_name": "BatchNormalization", "config": {"name": "batch_normalization_630", "trainable": true, "dtype": "float32", "axis": -1, "momentum": 0.99, "epsilon": 0.001, "center": true, "scale": true, "beta_initializer": {"module": "keras.initializers", "class_name": "Zeros", "config": {}, "registered_name": null}, "gamma_initializer": {"module": "keras.initializers", "class_name": "Ones", "config": {}, "registered_name": null}, "moving_mean_initializer": {"module": "keras.initializers", "class_name": "Zeros", "config": {}, "registered_name": null}, "moving_variance_initializer": {"module": "keras.initializers", "class_name": "Ones", "config": {}, "registered_name": null}, "beta_regularizer": null, "gamma_regularizer": null, "beta_constraint": null, "gamma_constraint": null, "synchronized": false}, "name": "batch_normalization_630", "inbound_nodes": [{"args": [{"class_name": "__keras_tensor__", "config": {"shape": [null, 32, 32, 128], "dtype": "float32", "keras_history": ["leaky_re_lu_330", 0, 0]}}], "kwargs": {"mask": null}}]}, {"class_name": "Conv2D", "config": {"name": "conv2d_627", "trainable": true, "dtype": "float32", "filters": 128, "kernel_size": [3, 3], "strides": [1, 1], "padding": "same", "data_format": "channels_last", "dilation_rate": [1, 1], "groups": 1, "activation": "linear", "use_bias": true, "kernel_initializer": {"module": "keras.initializers", "class_name": "GlorotUniform", "config": {"seed": null}, "registered_name": null}, "bias_initializer": {"module": "keras.initializers", "class_name": "Zeros", "config": {}, "registered_name": null}, "kernel_regularizer": null, "bias_regularizer": null, "activity_regularizer": null, "kernel_constraint": null, "bias_constraint": null}, "name": "conv2d_627", "inbound_nodes": [{"args": [{"class_name": "__keras_tensor__", "config": {"shape": [null, 32, 32, 128], "dtype": "float32", "keras_history": ["batch_normalization_630", 0, 0]}}], "kwargs": {}}]}, {"class_name": "BatchNormalization", "config": {"name": "batch_normalization_631", "trainable": true, "dtype": "float32", "axis": -1, "momentum": 0.99, "epsilon": 0.001, "center": true, "scale": true, "beta_initializer": {"module": "keras.initializers", "class_name": "Zeros", "config": {}, "registered_name": null}, "gamma_initializer": {"module": "keras.initializers", "class_name": "Ones", "config": {}, "registered_name": null}, "moving_mean_initializer": {"module": "keras.initializers", "class_name": "Zeros", "config": {}, "registered_name": null}, "moving_variance_initializer": {"module": "keras.initializers", "class_name": "Ones", "config": {}, "registered_name": null}, "beta_regularizer": null, "gamma_regularizer": null, "beta_constraint": null, "gamma_constraint": null, "synchronized": false}, "name": "batch_normalization_631", "inbound_nodes": [{"args": [{"class_name": "__keras_tensor__", "config": {"shape": [null, 32, 32, 128], "dtype": "float32", "keras_history": ["conv2d_627", 0, 0]}}], "kwargs": {"mask": null}}]}, {"class_name": "Add", "config": {"name": "add_300", "trainable": true, "dtype": "float32"}, "name": "add_300", "inbound_nodes": [{"args": [[{"class_name": "__keras_tensor__", "config": {"shape": [null, 32, 32, 128], "dtype": "float32", "keras_history": ["add_299", 0, 0]}}, {"class_name": "__keras_tensor__", "config": {"shape": [null, 32, 32, 128], "dtype": "float32", "keras_history": ["batch_normalization_631", 0, 0]}}]], "kwargs": {}}]}, {"class_name": "Conv2D", "config": {"name": "conv2d_628", "trainable": true, "dtype": "float32", "filters": 128, "kernel_size": [3, 3], "strides": [1, 1], "padding": "same", "data_format": "channels_last", "dilation_rate": [1, 1], "groups": 1, "activation": "linear", "use_bias": true, "kernel_initializer": {"module": "keras.initializers", "class_name": "GlorotUniform", "config": {"seed": null}, "registered_name": null}, "bias_initializer": {"module": "keras.initializers", "class_name": "Zeros", "config": {}, "registered_name": null}, "kernel_regularizer": null, "bias_regularizer": null, "activity_regularizer": null, "kernel_constraint": null, "bias_constraint": null}, "name": "conv2d_628", "inbound_nodes": [{"args": [{"class_name": "__keras_tensor__", "config": {"shape": [null, 32, 32, 128], "dtype": "float32", "keras_history": ["add_300", 0, 0]}}], "kwargs": {}}]}, {"class_name": "LeakyReLU", "config": {"name": "leaky_re_lu_331", "trainable": true, "dtype": "float32", "negative_slope": 0.2}, "name": "leaky_re_lu_331", "inbound_nodes": [{"args": [{"class_name": "__keras_tensor__", "config": {"shape": [null, 32, 32, 128], "dtype": "float32", "keras_history": ["conv2d_628", 0, 0]}}], "kwargs": {}}]}, {"class_name": "BatchNormalization", "config": {"name": "batch_normalization_632", "trainable": true, "dtype": "float32", "axis": -1, "momentum": 0.99, "epsilon": 0.001, "center": true, "scale": true, "beta_initializer": {"module": "keras.initializers", "class_name": "Zeros", "config": {}, "registered_name": null}, "gamma_initializer": {"module": "keras.initializers", "class_name": "Ones", "config": {}, "registered_name": null}, "moving_mean_initializer": {"module": "keras.initializers", "class_name": "Zeros", "config": {}, "registered_name": null}, "moving_variance_initializer": {"module": "keras.initializers", "class_name": "Ones", "config": {}, "registered_name": null}, "beta_regularizer": null, "gamma_regularizer": null, "beta_constraint": null, "gamma_constraint": null, "synchronized": false}, "name": "batch_normalization_632", "inbound_nodes": [{"args": [{"class_name": "__keras_tensor__", "config": {"shape": [null, 32, 32, 128], "dtype": "float32", "keras_history": ["leaky_re_lu_331", 0, 0]}}], "kwargs": {"mask": null}}]}, {"class_name": "Conv2D", "config": {"name": "conv2d_629", "trainable": true, "dtype": "float32", "filters": 128, "kernel_size": [3, 3], "strides": [1, 1], "padding": "same", "data_format": "channels_last", "dilation_rate": [1, 1], "groups": 1, "activation": "linear", "use_bias": true, "kernel_initializer": {"module": "keras.initializers", "class_name": "GlorotUniform", "config": {"seed": null}, "registered_name": null}, "bias_initializer": {"module": "keras.initializers", "class_name": "Zeros", "config": {}, "registered_name": null}, "kernel_regularizer": null, "bias_regularizer": null, "activity_regularizer": null, "kernel_constraint": null, "bias_constraint": null}, "name": "conv2d_629", "inbound_nodes": [{"args": [{"class_name": "__keras_tensor__", "config": {"shape": [null, 32, 32, 128], "dtype": "float32", "keras_history": ["batch_normalization_632", 0, 0]}}], "kwargs": {}}]}, {"class_name": "BatchNormalization", "config": {"name": "batch_normalization_633", "trainable": true, "dtype": "float32", "axis": -1, "momentum": 0.99, "epsilon": 0.001, "center": true, "scale": true, "beta_initializer": {"module": "keras.initializers", "class_name": "Zeros", "config": {}, "registered_name": null}, "gamma_initializer": {"module": "keras.initializers", "class_name": "Ones", "config": {}, "registered_name": null}, "moving_mean_initializer": {"module": "keras.initializers", "class_name": "Zeros", "config": {}, "registered_name": null}, "moving_variance_initializer": {"module": "keras.initializers", "class_name": "Ones", "config": {}, "registered_name": null}, "beta_regularizer": null, "gamma_regularizer": null, "beta_constraint": null, "gamma_constraint": null, "synchronized": false}, "name": "batch_normalization_633", "inbound_nodes": [{"args": [{"class_name": "__keras_tensor__", "config": {"shape": [null, 32, 32, 128], "dtype": "float32", "keras_history": ["conv2d_629", 0, 0]}}], "kwargs": {"mask": null}}]}, {"class_name": "Add", "config": {"name": "add_301", "trainable": true, "dtype": "float32"}, "name": "add_301", "inbound_nodes": [{"args": [[{"class_name": "__keras_tensor__", "config": {"shape": [null, 32, 32, 128], "dtype": "float32", "keras_history": ["add_300", 0, 0]}}, {"class_name": "__keras_tensor__", "config": {"shape": [null, 32, 32, 128], "dtype": "float32", "keras_history": ["batch_normalization_633", 0, 0]}}]], "kwargs": {}}]}, {"class_name": "Conv2D", "config": {"name": "conv2d_630", "trainable": true, "dtype": "float32", "filters": 128, "kernel_size": [3, 3], "strides": [1, 1], "padding": "same", "data_format": "channels_last", "dilation_rate": [1, 1], "groups": 1, "activation": "linear", "use_bias": true, "kernel_initializer": {"module": "keras.initializers", "class_name": "GlorotUniform", "config": {"seed": null}, "registered_name": null}, "bias_initializer": {"module": "keras.initializers", "class_name": "Zeros", "config": {}, "registered_name": null}, "kernel_regularizer": null, "bias_regularizer": null, "activity_regularizer": null, "kernel_constraint": null, "bias_constraint": null}, "name": "conv2d_630", "inbound_nodes": [{"args": [{"class_name": "__keras_tensor__", "config": {"shape": [null, 32, 32, 128], "dtype": "float32", "keras_history": ["add_301", 0, 0]}}], "kwargs": {}}]}, {"class_name": "LeakyReLU", "config": {"name": "leaky_re_lu_332", "trainable": true, "dtype": "float32", "negative_slope": 0.2}, "name": "leaky_re_lu_332", "inbound_nodes": [{"args": [{"class_name": "__keras_tensor__", "config": {"shape": [null, 32, 32, 128], "dtype": "float32", "keras_history": ["conv2d_630", 0, 0]}}], "kwargs": {}}]}, {"class_name": "BatchNormalization", "config": {"name": "batch_normalization_634", "trainable": true, "dtype": "float32", "axis": -1, "momentum": 0.99, "epsilon": 0.001, "center": true, "scale": true, "beta_initializer": {"module": "keras.initializers", "class_name": "Zeros", "config": {}, "registered_name": null}, "gamma_initializer": {"module": "keras.initializers", "class_name": "Ones", "config": {}, "registered_name": null}, "moving_mean_initializer": {"module": "keras.initializers", "class_name": "Zeros", "config": {}, "registered_name": null}, "moving_variance_initializer": {"module": "keras.initializers", "class_name": "Ones", "config": {}, "registered_name": null}, "beta_regularizer": null, "gamma_regularizer": null, "beta_constraint": null, "gamma_constraint": null, "synchronized": false}, "name": "batch_normalization_634", "inbound_nodes": [{"args": [{"class_name": "__keras_tensor__", "config": {"shape": [null, 32, 32, 128], "dtype": "float32", "keras_history": ["leaky_re_lu_332", 0, 0]}}], "kwargs": {"mask": null}}]}, {"class_name": "Conv2D", "config": {"name": "conv2d_631", "trainable": true, "dtype": "float32", "filters": 128, "kernel_size": [3, 3], "strides": [1, 1], "padding": "same", "data_format": "channels_last", "dilation_rate": [1, 1], "groups": 1, "activation": "linear", "use_bias": true, "kernel_initializer": {"module": "keras.initializers", "class_name": "GlorotUniform", "config": {"seed": null}, "registered_name": null}, "bias_initializer": {"module": "keras.initializers", "class_name": "Zeros", "config": {}, "registered_name": null}, "kernel_regularizer": null, "bias_regularizer": null, "activity_regularizer": null, "kernel_constraint": null, "bias_constraint": null}, "name": "conv2d_631", "inbound_nodes": [{"args": [{"class_name": "__keras_tensor__", "config": {"shape": [null, 32, 32, 128], "dtype": "float32", "keras_history": ["batch_normalization_634", 0, 0]}}], "kwargs": {}}]}, {"class_name": "BatchNormalization", "config": {"name": "batch_normalization_635", "trainable": true, "dtype": "float32", "axis": -1, "momentum": 0.99, "epsilon": 0.001, "center": true, "scale": true, "beta_initializer": {"module": "keras.initializers", "class_name": "Zeros", "config": {}, "registered_name": null}, "gamma_initializer": {"module": "keras.initializers", "class_name": "Ones", "config": {}, "registered_name": null}, "moving_mean_initializer": {"module": "keras.initializers", "class_name": "Zeros", "config": {}, "registered_name": null}, "moving_variance_initializer": {"module": "keras.initializers", "class_name": "Ones", "config": {}, "registered_name": null}, "beta_regularizer": null, "gamma_regularizer": null, "beta_constraint": null, "gamma_constraint": null, "synchronized": false}, "name": "batch_normalization_635", "inbound_nodes": [{"args": [{"class_name": "__keras_tensor__", "config": {"shape": [null, 32, 32, 128], "dtype": "float32", "keras_history": ["conv2d_631", 0, 0]}}], "kwargs": {"mask": null}}]}, {"class_name": "Add", "config": {"name": "add_302", "trainable": true, "dtype": "float32"}, "name": "add_302", "inbound_nodes": [{"args": [[{"class_name": "__keras_tensor__", "config": {"shape": [null, 32, 32, 128], "dtype": "float32", "keras_history": ["add_301", 0, 0]}}, {"class_name": "__keras_tensor__", "config": {"shape": [null, 32, 32, 128], "dtype": "float32", "keras_history": ["batch_normalization_635", 0, 0]}}]], "kwargs": {}}]}, {"class_name": "Conv2D", "config": {"name": "conv2d_632", "trainable": true, "dtype": "float32", "filters": 128, "kernel_size": [3, 3], "strides": [1, 1], "padding": "same", "data_format": "channels_last", "dilation_rate": [1, 1], "groups": 1, "activation": "linear", "use_bias": true, "kernel_initializer": {"module": "keras.initializers", "class_name": "GlorotUniform", "config": {"seed": null}, "registered_name": null}, "bias_initializer": {"module": "keras.initializers", "class_name": "Zeros", "config": {}, "registered_name": null}, "kernel_regularizer": null, "bias_regularizer": null, "activity_regularizer": null, "kernel_constraint": null, "bias_constraint": null}, "name": "conv2d_632", "inbound_nodes": [{"args": [{"class_name": "__keras_tensor__", "config": {"shape": [null, 32, 32, 128], "dtype": "float32", "keras_history": ["add_302", 0, 0]}}], "kwargs": {}}]}, {"class_name": "LeakyReLU", "config": {"name": "leaky_re_lu_333", "trainable": true, "dtype": "float32", "negative_slope": 0.2}, "name": "leaky_re_lu_333", "inbound_nodes": [{"args": [{"class_name": "__keras_tensor__", "config": {"shape": [null, 32, 32, 128], "dtype": "float32", "keras_history": ["conv2d_632", 0, 0]}}], "kwargs": {}}]}, {"class_name": "BatchNormalization", "config": {"name": "batch_normalization_636", "trainable": true, "dtype": "float32", "axis": -1, "momentum": 0.99, "epsilon": 0.001, "center": true, "scale": true, "beta_initializer": {"module": "keras.initializers", "class_name": "Zeros", "config": {}, "registered_name": null}, "gamma_initializer": {"module": "keras.initializers", "class_name": "Ones", "config": {}, "registered_name": null}, "moving_mean_initializer": {"module": "keras.initializers", "class_name": "Zeros", "config": {}, "registered_name": null}, "moving_variance_initializer": {"module": "keras.initializers", "class_name": "Ones", "config": {}, "registered_name": null}, "beta_regularizer": null, "gamma_regularizer": null, "beta_constraint": null, "gamma_constraint": null, "synchronized": false}, "name": "batch_normalization_636", "inbound_nodes": [{"args": [{"class_name": "__keras_tensor__", "config": {"shape": [null, 32, 32, 128], "dtype": "float32", "keras_history": ["leaky_re_lu_333", 0, 0]}}], "kwargs": {"mask": null}}]}, {"class_name": "Conv2D", "config": {"name": "conv2d_633", "trainable": true, "dtype": "float32", "filters": 128, "kernel_size": [3, 3], "strides": [1, 1], "padding": "same", "data_format": "channels_last", "dilation_rate": [1, 1], "groups": 1, "activation": "linear", "use_bias": true, "kernel_initializer": {"module": "keras.initializers", "class_name": "GlorotUniform", "config": {"seed": null}, "registered_name": null}, "bias_initializer": {"module": "keras.initializers", "class_name": "Zeros", "config": {}, "registered_name": null}, "kernel_regularizer": null, "bias_regularizer": null, "activity_regularizer": null, "kernel_constraint": null, "bias_constraint": null}, "name": "conv2d_633", "inbound_nodes": [{"args": [{"class_name": "__keras_tensor__", "config": {"shape": [null, 32, 32, 128], "dtype": "float32", "keras_history": ["batch_normalization_636", 0, 0]}}], "kwargs": {}}]}, {"class_name": "BatchNormalization", "config": {"name": "batch_normalization_637", "trainable": true, "dtype": "float32", "axis": -1, "momentum": 0.99, "epsilon": 0.001, "center": true, "scale": true, "beta_initializer": {"module": "keras.initializers", "class_name": "Zeros", "config": {}, "registered_name": null}, "gamma_initializer": {"module": "keras.initializers", "class_name": "Ones", "config": {}, "registered_name": null}, "moving_mean_initializer": {"module": "keras.initializers", "class_name": "Zeros", "config": {}, "registered_name": null}, "moving_variance_initializer": {"module": "keras.initializers", "class_name": "Ones", "config": {}, "registered_name": null}, "beta_regularizer": null, "gamma_regularizer": null, "beta_constraint": null, "gamma_constraint": null, "synchronized": false}, "name": "batch_normalization_637", "inbound_nodes": [{"args": [{"class_name": "__keras_tensor__", "config": {"shape": [null, 32, 32, 128], "dtype": "float32", "keras_history": ["conv2d_633", 0, 0]}}], "kwargs": {"mask": null}}]}, {"class_name": "Add", "config": {"name": "add_303", "trainable": true, "dtype": "float32"}, "name": "add_303", "inbound_nodes": [{"args": [[{"class_name": "__keras_tensor__", "config": {"shape": [null, 32, 32, 128], "dtype": "float32", "keras_history": ["add_302", 0, 0]}}, {"class_name": "__keras_tensor__", "config": {"shape": [null, 32, 32, 128], "dtype": "float32", "keras_history": ["batch_normalization_637", 0, 0]}}]], "kwargs": {}}]}, {"class_name": "Conv2D", "config": {"name": "conv2d_634", "trainable": true, "dtype": "float32", "filters": 128, "kernel_size": [3, 3], "strides": [1, 1], "padding": "same", "data_format": "channels_last", "dilation_rate": [1, 1], "groups": 1, "activation": "linear", "use_bias": true, "kernel_initializer": {"module": "keras.initializers", "class_name": "GlorotUniform", "config": {"seed": null}, "registered_name": null}, "bias_initializer": {"module": "keras.initializers", "class_name": "Zeros", "config": {}, "registered_name": null}, "kernel_regularizer": null, "bias_regularizer": null, "activity_regularizer": null, "kernel_constraint": null, "bias_constraint": null}, "name": "conv2d_634", "inbound_nodes": [{"args": [{"class_name": "__keras_tensor__", "config": {"shape": [null, 32, 32, 128], "dtype": "float32", "keras_history": ["add_303", 0, 0]}}], "kwargs": {}}]}, {"class_name": "LeakyReLU", "config": {"name": "leaky_re_lu_334", "trainable": true, "dtype": "float32", "negative_slope": 0.2}, "name": "leaky_re_lu_334", "inbound_nodes": [{"args": [{"class_name": "__keras_tensor__", "config": {"shape": [null, 32, 32, 128], "dtype": "float32", "keras_history": ["conv2d_634", 0, 0]}}], "kwargs": {}}]}, {"class_name": "BatchNormalization", "config": {"name": "batch_normalization_638", "trainable": true, "dtype": "float32", "axis": -1, "momentum": 0.99, "epsilon": 0.001, "center": true, "scale": true, "beta_initializer": {"module": "keras.initializers", "class_name": "Zeros", "config": {}, "registered_name": null}, "gamma_initializer": {"module": "keras.initializers", "class_name": "Ones", "config": {}, "registered_name": null}, "moving_mean_initializer": {"module": "keras.initializers", "class_name": "Zeros", "config": {}, "registered_name": null}, "moving_variance_initializer": {"module": "keras.initializers", "class_name": "Ones", "config": {}, "registered_name": null}, "beta_regularizer": null, "gamma_regularizer": null, "beta_constraint": null, "gamma_constraint": null, "synchronized": false}, "name": "batch_normalization_638", "inbound_nodes": [{"args": [{"class_name": "__keras_tensor__", "config": {"shape": [null, 32, 32, 128], "dtype": "float32", "keras_history": ["leaky_re_lu_334", 0, 0]}}], "kwargs": {"mask": null}}]}, {"class_name": "Conv2D", "config": {"name": "conv2d_635", "trainable": true, "dtype": "float32", "filters": 128, "kernel_size": [3, 3], "strides": [1, 1], "padding": "same", "data_format": "channels_last", "dilation_rate": [1, 1], "groups": 1, "activation": "linear", "use_bias": true, "kernel_initializer": {"module": "keras.initializers", "class_name": "GlorotUniform", "config": {"seed": null}, "registered_name": null}, "bias_initializer": {"module": "keras.initializers", "class_name": "Zeros", "config": {}, "registered_name": null}, "kernel_regularizer": null, "bias_regularizer": null, "activity_regularizer": null, "kernel_constraint": null, "bias_constraint": null}, "name": "conv2d_635", "inbound_nodes": [{"args": [{"class_name": "__keras_tensor__", "config": {"shape": [null, 32, 32, 128], "dtype": "float32", "keras_history": ["batch_normalization_638", 0, 0]}}], "kwargs": {}}]}, {"class_name": "BatchNormalization", "config": {"name": "batch_normalization_639", "trainable": true, "dtype": "float32", "axis": -1, "momentum": 0.99, "epsilon": 0.001, "center": true, "scale": true, "beta_initializer": {"module": "keras.initializers", "class_name": "Zeros", "config": {}, "registered_name": null}, "gamma_initializer": {"module": "keras.initializers", "class_name": "Ones", "config": {}, "registered_name": null}, "moving_mean_initializer": {"module": "keras.initializers", "class_name": "Zeros", "config": {}, "registered_name": null}, "moving_variance_initializer": {"module": "keras.initializers", "class_name": "Ones", "config": {}, "registered_name": null}, "beta_regularizer": null, "gamma_regularizer": null, "beta_constraint": null, "gamma_constraint": null, "synchronized": false}, "name": "batch_normalization_639", "inbound_nodes": [{"args": [{"class_name": "__keras_tensor__", "config": {"shape": [null, 32, 32, 128], "dtype": "float32", "keras_history": ["conv2d_635", 0, 0]}}], "kwargs": {"mask": null}}]}, {"class_name": "Add", "config": {"name": "add_304", "trainable": true, "dtype": "float32"}, "name": "add_304", "inbound_nodes": [{"args": [[{"class_name": "__keras_tensor__", "config": {"shape": [null, 32, 32, 128], "dtype": "float32", "keras_history": ["add_303", 0, 0]}}, {"class_name": "__keras_tensor__", "config": {"shape": [null, 32, 32, 128], "dtype": "float32", "keras_history": ["batch_normalization_639", 0, 0]}}]], "kwargs": {}}]}, {"class_name": "Conv2D", "config": {"name": "conv2d_636", "trainable": true, "dtype": "float32", "filters": 128, "kernel_size": [3, 3], "strides": [1, 1], "padding": "same", "data_format": "channels_last", "dilation_rate": [1, 1], "groups": 1, "activation": "linear", "use_bias": true, "kernel_initializer": {"module": "keras.initializers", "class_name": "GlorotUniform", "config": {"seed": null}, "registered_name": null}, "bias_initializer": {"module": "keras.initializers", "class_name": "Zeros", "config": {}, "registered_name": null}, "kernel_regularizer": null, "bias_regularizer": null, "activity_regularizer": null, "kernel_constraint": null, "bias_constraint": null}, "name": "conv2d_636", "inbound_nodes": [{"args": [{"class_name": "__keras_tensor__", "config": {"shape": [null, 32, 32, 128], "dtype": "float32", "keras_history": ["add_304", 0, 0]}}], "kwargs": {}}]}, {"class_name": "LeakyReLU", "config": {"name": "leaky_re_lu_335", "trainable": true, "dtype": "float32", "negative_slope": 0.2}, "name": "leaky_re_lu_335", "inbound_nodes": [{"args": [{"class_name": "__keras_tensor__", "config": {"shape": [null, 32, 32, 128], "dtype": "float32", "keras_history": ["conv2d_636", 0, 0]}}], "kwargs": {}}]}, {"class_name": "BatchNormalization", "config": {"name": "batch_normalization_640", "trainable": true, "dtype": "float32", "axis": -1, "momentum": 0.99, "epsilon": 0.001, "center": true, "scale": true, "beta_initializer": {"module": "keras.initializers", "class_name": "Zeros", "config": {}, "registered_name": null}, "gamma_initializer": {"module": "keras.initializers", "class_name": "Ones", "config": {}, "registered_name": null}, "moving_mean_initializer": {"module": "keras.initializers", "class_name": "Zeros", "config": {}, "registered_name": null}, "moving_variance_initializer": {"module": "keras.initializers", "class_name": "Ones", "config": {}, "registered_name": null}, "beta_regularizer": null, "gamma_regularizer": null, "beta_constraint": null, "gamma_constraint": null, "synchronized": false}, "name": "batch_normalization_640", "inbound_nodes": [{"args": [{"class_name": "__keras_tensor__", "config": {"shape": [null, 32, 32, 128], "dtype": "float32", "keras_history": ["leaky_re_lu_335", 0, 0]}}], "kwargs": {"mask": null}}]}, {"class_name": "Conv2D", "config": {"name": "conv2d_637", "trainable": true, "dtype": "float32", "filters": 128, "kernel_size": [3, 3], "strides": [1, 1], "padding": "same", "data_format": "channels_last", "dilation_rate": [1, 1], "groups": 1, "activation": "linear", "use_bias": true, "kernel_initializer": {"module": "keras.initializers", "class_name": "GlorotUniform", "config": {"seed": null}, "registered_name": null}, "bias_initializer": {"module": "keras.initializers", "class_name": "Zeros", "config": {}, "registered_name": null}, "kernel_regularizer": null, "bias_regularizer": null, "activity_regularizer": null, "kernel_constraint": null, "bias_constraint": null}, "name": "conv2d_637", "inbound_nodes": [{"args": [{"class_name": "__keras_tensor__", "config": {"shape": [null, 32, 32, 128], "dtype": "float32", "keras_history": ["batch_normalization_640", 0, 0]}}], "kwargs": {}}]}, {"class_name": "BatchNormalization", "config": {"name": "batch_normalization_641", "trainable": true, "dtype": "float32", "axis": -1, "momentum": 0.99, "epsilon": 0.001, "center": true, "scale": true, "beta_initializer": {"module": "keras.initializers", "class_name": "Zeros", "config": {}, "registered_name": null}, "gamma_initializer": {"module": "keras.initializers", "class_name": "Ones", "config": {}, "registered_name": null}, "moving_mean_initializer": {"module": "keras.initializers", "class_name": "Zeros", "config": {}, "registered_name": null}, "moving_variance_initializer": {"module": "keras.initializers", "class_name": "Ones", "config": {}, "registered_name": null}, "beta_regularizer": null, "gamma_regularizer": null, "beta_constraint": null, "gamma_constraint": null, "synchronized": false}, "name": "batch_normalization_641", "inbound_nodes": [{"args": [{"class_name": "__keras_tensor__", "config": {"shape": [null, 32, 32, 128], "dtype": "float32", "keras_history": ["conv2d_637", 0, 0]}}], "kwargs": {"mask": null}}]}, {"class_name": "Add", "config": {"name": "add_305", "trainable": true, "dtype": "float32"}, "name": "add_305", "inbound_nodes": [{"args": [[{"class_name": "__keras_tensor__", "config": {"shape": [null, 32, 32, 128], "dtype": "float32", "keras_history": ["add_304", 0, 0]}}, {"class_name": "__keras_tensor__", "config": {"shape": [null, 32, 32, 128], "dtype": "float32", "keras_history": ["batch_normalization_641", 0, 0]}}]], "kwargs": {}}]}, {"class_name": "Conv2D", "config": {"name": "conv2d_638", "trainable": true, "dtype": "float32", "filters": 128, "kernel_size": [3, 3], "strides": [1, 1], "padding": "same", "data_format": "channels_last", "dilation_rate": [1, 1], "groups": 1, "activation": "linear", "use_bias": true, "kernel_initializer": {"module": "keras.initializers", "class_name": "GlorotUniform", "config": {"seed": null}, "registered_name": null}, "bias_initializer": {"module": "keras.initializers", "class_name": "Zeros", "config": {}, "registered_name": null}, "kernel_regularizer": null, "bias_regularizer": null, "activity_regularizer": null, "kernel_constraint": null, "bias_constraint": null}, "name": "conv2d_638", "inbound_nodes": [{"args": [{"class_name": "__keras_tensor__", "config": {"shape": [null, 32, 32, 128], "dtype": "float32", "keras_history": ["add_305", 0, 0]}}], "kwargs": {}}]}, {"class_name": "LeakyReLU", "config": {"name": "leaky_re_lu_336", "trainable": true, "dtype": "float32", "negative_slope": 0.2}, "name": "leaky_re_lu_336", "inbound_nodes": [{"args": [{"class_name": "__keras_tensor__", "config": {"shape": [null, 32, 32, 128], "dtype": "float32", "keras_history": ["conv2d_638", 0, 0]}}], "kwargs": {}}]}, {"class_name": "BatchNormalization", "config": {"name": "batch_normalization_642", "trainable": true, "dtype": "float32", "axis": -1, "momentum": 0.99, "epsilon": 0.001, "center": true, "scale": true, "beta_initializer": {"module": "keras.initializers", "class_name": "Zeros", "config": {}, "registered_name": null}, "gamma_initializer": {"module": "keras.initializers", "class_name": "Ones", "config": {}, "registered_name": null}, "moving_mean_initializer": {"module": "keras.initializers", "class_name": "Zeros", "config": {}, "registered_name": null}, "moving_variance_initializer": {"module": "keras.initializers", "class_name": "Ones", "config": {}, "registered_name": null}, "beta_regularizer": null, "gamma_regularizer": null, "beta_constraint": null, "gamma_constraint": null, "synchronized": false}, "name": "batch_normalization_642", "inbound_nodes": [{"args": [{"class_name": "__keras_tensor__", "config": {"shape": [null, 32, 32, 128], "dtype": "float32", "keras_history": ["leaky_re_lu_336", 0, 0]}}], "kwargs": {"mask": null}}]}, {"class_name": "Conv2D", "config": {"name": "conv2d_639", "trainable": true, "dtype": "float32", "filters": 128, "kernel_size": [3, 3], "strides": [1, 1], "padding": "same", "data_format": "channels_last", "dilation_rate": [1, 1], "groups": 1, "activation": "linear", "use_bias": true, "kernel_initializer": {"module": "keras.initializers", "class_name": "GlorotUniform", "config": {"seed": null}, "registered_name": null}, "bias_initializer": {"module": "keras.initializers", "class_name": "Zeros", "config": {}, "registered_name": null}, "kernel_regularizer": null, "bias_regularizer": null, "activity_regularizer": null, "kernel_constraint": null, "bias_constraint": null}, "name": "conv2d_639", "inbound_nodes": [{"args": [{"class_name": "__keras_tensor__", "config": {"shape": [null, 32, 32, 128], "dtype": "float32", "keras_history": ["batch_normalization_642", 0, 0]}}], "kwargs": {}}]}, {"class_name": "BatchNormalization", "config": {"name": "batch_normalization_643", "trainable": true, "dtype": "float32", "axis": -1, "momentum": 0.99, "epsilon": 0.001, "center": true, "scale": true, "beta_initializer": {"module": "keras.initializers", "class_name": "Zeros", "config": {}, "registered_name": null}, "gamma_initializer": {"module": "keras.initializers", "class_name": "Ones", "config": {}, "registered_name": null}, "moving_mean_initializer": {"module": "keras.initializers", "class_name": "Zeros", "config": {}, "registered_name": null}, "moving_variance_initializer": {"module": "keras.initializers", "class_name": "Ones", "config": {}, "registered_name": null}, "beta_regularizer": null, "gamma_regularizer": null, "beta_constraint": null, "gamma_constraint": null, "synchronized": false}, "name": "batch_normalization_643", "inbound_nodes": [{"args": [{"class_name": "__keras_tensor__", "config": {"shape": [null, 32, 32, 128], "dtype": "float32", "keras_history": ["conv2d_639", 0, 0]}}], "kwargs": {"mask": null}}]}, {"class_name": "Add", "config": {"name": "add_306", "trainable": true, "dtype": "float32"}, "name": "add_306", "inbound_nodes": [{"args": [[{"class_name": "__keras_tensor__", "config": {"shape": [null, 32, 32, 128], "dtype": "float32", "keras_history": ["add_305", 0, 0]}}, {"class_name": "__keras_tensor__", "config": {"shape": [null, 32, 32, 128], "dtype": "float32", "keras_history": ["batch_normalization_643", 0, 0]}}]], "kwargs": {}}]}, {"class_name": "Conv2D", "config": {"name": "conv2d_640", "trainable": true, "dtype": "float32", "filters": 128, "kernel_size": [3, 3], "strides": [1, 1], "padding": "same", "data_format": "channels_last", "dilation_rate": [1, 1], "groups": 1, "activation": "linear", "use_bias": true, "kernel_initializer": {"module": "keras.initializers", "class_name": "GlorotUniform", "config": {"seed": null}, "registered_name": null}, "bias_initializer": {"module": "keras.initializers", "class_name": "Zeros", "config": {}, "registered_name": null}, "kernel_regularizer": null, "bias_regularizer": null, "activity_regularizer": null, "kernel_constraint": null, "bias_constraint": null}, "name": "conv2d_640", "inbound_nodes": [{"args": [{"class_name": "__keras_tensor__", "config": {"shape": [null, 32, 32, 128], "dtype": "float32", "keras_history": ["add_306", 0, 0]}}], "kwargs": {}}]}, {"class_name": "LeakyReLU", "config": {"name": "leaky_re_lu_337", "trainable": true, "dtype": "float32", "negative_slope": 0.2}, "name": "leaky_re_lu_337", "inbound_nodes": [{"args": [{"class_name": "__keras_tensor__", "config": {"shape": [null, 32, 32, 128], "dtype": "float32", "keras_history": ["conv2d_640", 0, 0]}}], "kwargs": {}}]}, {"class_name": "BatchNormalization", "config": {"name": "batch_normalization_644", "trainable": true, "dtype": "float32", "axis": -1, "momentum": 0.99, "epsilon": 0.001, "center": true, "scale": true, "beta_initializer": {"module": "keras.initializers", "class_name": "Zeros", "config": {}, "registered_name": null}, "gamma_initializer": {"module": "keras.initializers", "class_name": "Ones", "config": {}, "registered_name": null}, "moving_mean_initializer": {"module": "keras.initializers", "class_name": "Zeros", "config": {}, "registered_name": null}, "moving_variance_initializer": {"module": "keras.initializers", "class_name": "Ones", "config": {}, "registered_name": null}, "beta_regularizer": null, "gamma_regularizer": null, "beta_constraint": null, "gamma_constraint": null, "synchronized": false}, "name": "batch_normalization_644", "inbound_nodes": [{"args": [{"class_name": "__keras_tensor__", "config": {"shape": [null, 32, 32, 128], "dtype": "float32", "keras_history": ["leaky_re_lu_337", 0, 0]}}], "kwargs": {"mask": null}}]}, {"class_name": "Conv2D", "config": {"name": "conv2d_641", "trainable": true, "dtype": "float32", "filters": 128, "kernel_size": [3, 3], "strides": [1, 1], "padding": "same", "data_format": "channels_last", "dilation_rate": [1, 1], "groups": 1, "activation": "linear", "use_bias": true, "kernel_initializer": {"module": "keras.initializers", "class_name": "GlorotUniform", "config": {"seed": null}, "registered_name": null}, "bias_initializer": {"module": "keras.initializers", "class_name": "Zeros", "config": {}, "registered_name": null}, "kernel_regularizer": null, "bias_regularizer": null, "activity_regularizer": null, "kernel_constraint": null, "bias_constraint": null}, "name": "conv2d_641", "inbound_nodes": [{"args": [{"class_name": "__keras_tensor__", "config": {"shape": [null, 32, 32, 128], "dtype": "float32", "keras_history": ["batch_normalization_644", 0, 0]}}], "kwargs": {}}]}, {"class_name": "BatchNormalization", "config": {"name": "batch_normalization_645", "trainable": true, "dtype": "float32", "axis": -1, "momentum": 0.99, "epsilon": 0.001, "center": true, "scale": true, "beta_initializer": {"module": "keras.initializers", "class_name": "Zeros", "config": {}, "registered_name": null}, "gamma_initializer": {"module": "keras.initializers", "class_name": "Ones", "config": {}, "registered_name": null}, "moving_mean_initializer": {"module": "keras.initializers", "class_name": "Zeros", "config": {}, "registered_name": null}, "moving_variance_initializer": {"module": "keras.initializers", "class_name": "Ones", "config": {}, "registered_name": null}, "beta_regularizer": null, "gamma_regularizer": null, "beta_constraint": null, "gamma_constraint": null, "synchronized": false}, "name": "batch_normalization_645", "inbound_nodes": [{"args": [{"class_name": "__keras_tensor__", "config": {"shape": [null, 32, 32, 128], "dtype": "float32", "keras_history": ["conv2d_641", 0, 0]}}], "kwargs": {"mask": null}}]}, {"class_name": "Add", "config": {"name": "add_307", "trainable": true, "dtype": "float32"}, "name": "add_307", "inbound_nodes": [{"args": [[{"class_name": "__keras_tensor__", "config": {"shape": [null, 32, 32, 128], "dtype": "float32", "keras_history": ["add_306", 0, 0]}}, {"class_name": "__keras_tensor__", "config": {"shape": [null, 32, 32, 128], "dtype": "float32", "keras_history": ["batch_normalization_645", 0, 0]}}]], "kwargs": {}}]}, {"class_name": "Conv2D", "config": {"name": "conv2d_642", "trainable": true, "dtype": "float32", "filters": 256, "kernel_size": [3, 3], "strides": [1, 1], "padding": "same", "data_format": "channels_last", "dilation_rate": [1, 1], "groups": 1, "activation": "linear", "use_bias": true, "kernel_initializer": {"module": "keras.initializers", "class_name": "GlorotUniform", "config": {"seed": null}, "registered_name": null}, "bias_initializer": {"module": "keras.initializers", "class_name": "Zeros", "config": {}, "registered_name": null}, "kernel_regularizer": null, "bias_regularizer": null, "activity_regularizer": null, "kernel_constraint": null, "bias_constraint": null}, "name": "conv2d_642", "inbound_nodes": [{"args": [{"class_name": "__keras_tensor__", "config": {"shape": [null, 32, 32, 128], "dtype": "float32", "keras_history": ["add_307", 0, 0]}}], "kwargs": {}}]}, {"class_name": "LeakyReLU", "config": {"name": "leaky_re_lu_338", "trainable": true, "dtype": "float32", "negative_slope": 0.2}, "name": "leaky_re_lu_338", "inbound_nodes": [{"args": [{"class_name": "__keras_tensor__", "config": {"shape": [null, 32, 32, 256], "dtype": "float32", "keras_history": ["conv2d_642", 0, 0]}}], "kwargs": {}}]}, {"class_name": "BatchNormalization", "config": {"name": "batch_normalization_646", "trainable": true, "dtype": "float32", "axis": -1, "momentum": 0.99, "epsilon": 0.001, "center": true, "scale": true, "beta_initializer": {"module": "keras.initializers", "class_name": "Zeros", "config": {}, "registered_name": null}, "gamma_initializer": {"module": "keras.initializers", "class_name": "Ones", "config": {}, "registered_name": null}, "moving_mean_initializer": {"module": "keras.initializers", "class_name": "Zeros", "config": {}, "registered_name": null}, "moving_variance_initializer": {"module": "keras.initializers", "class_name": "Ones", "config": {}, "registered_name": null}, "beta_regularizer": null, "gamma_regularizer": null, "beta_constraint": null, "gamma_constraint": null, "synchronized": false}, "name": "batch_normalization_646", "inbound_nodes": [{"args": [{"class_name": "__keras_tensor__", "config": {"shape": [null, 32, 32, 256], "dtype": "float32", "keras_history": ["leaky_re_lu_338", 0, 0]}}], "kwargs": {"mask": null}}]}, {"class_name": "Conv2D", "config": {"name": "conv2d_643", "trainable": true, "dtype": "float32", "filters": 256, "kernel_size": [3, 3], "strides": [1, 1], "padding": "same", "data_format": "channels_last", "dilation_rate": [1, 1], "groups": 1, "activation": "linear", "use_bias": true, "kernel_initializer": {"module": "keras.initializers", "class_name": "GlorotUniform", "config": {"seed": null}, "registered_name": null}, "bias_initializer": {"module": "keras.initializers", "class_name": "Zeros", "config": {}, "registered_name": null}, "kernel_regularizer": null, "bias_regularizer": null, "activity_regularizer": null, "kernel_constraint": null, "bias_constraint": null}, "name": "conv2d_643", "inbound_nodes": [{"args": [{"class_name": "__keras_tensor__", "config": {"shape": [null, 32, 32, 256], "dtype": "float32", "keras_history": ["batch_normalization_646", 0, 0]}}], "kwargs": {}}]}, {"class_name": "LeakyReLU", "config": {"name": "leaky_re_lu_339", "trainable": true, "dtype": "float32", "negative_slope": 0.2}, "name": "leaky_re_lu_339", "inbound_nodes": [{"args": [{"class_name": "__keras_tensor__", "config": {"shape": [null, 32, 32, 256], "dtype": "float32", "keras_history": ["conv2d_643", 0, 0]}}], "kwargs": {}}]}, {"class_name": "BatchNormalization", "config": {"name": "batch_normalization_647", "trainable": true, "dtype": "float32", "axis": -1, "momentum": 0.99, "epsilon": 0.001, "center": true, "scale": true, "beta_initializer": {"module": "keras.initializers", "class_name": "Zeros", "config": {}, "registered_name": null}, "gamma_initializer": {"module": "keras.initializers", "class_name": "Ones", "config": {}, "registered_name": null}, "moving_mean_initializer": {"module": "keras.initializers", "class_name": "Zeros", "config": {}, "registered_name": null}, "moving_variance_initializer": {"module": "keras.initializers", "class_name": "Ones", "config": {}, "registered_name": null}, "beta_regularizer": null, "gamma_regularizer": null, "beta_constraint": null, "gamma_constraint": null, "synchronized": false}, "name": "batch_normalization_647", "inbound_nodes": [{"args": [{"class_name": "__keras_tensor__", "config": {"shape": [null, 32, 32, 256], "dtype": "float32", "keras_history": ["leaky_re_lu_339", 0, 0]}}], "kwargs": {"mask": null}}]}, {"class_name": "Conv2D", "config": {"name": "conv2d_644", "trainable": true, "dtype": "float32", "filters": 256, "kernel_size": [3, 3], "strides": [1, 1], "padding": "same", "data_format": "channels_last", "dilation_rate": [1, 1], "groups": 1, "activation": "linear", "use_bias": true, "kernel_initializer": {"module": "keras.initializers", "class_name": "GlorotUniform", "config": {"seed": null}, "registered_name": null}, "bias_initializer": {"module": "keras.initializers", "class_name": "Zeros", "config": {}, "registered_name": null}, "kernel_regularizer": null, "bias_regularizer": null, "activity_regularizer": null, "kernel_constraint": null, "bias_constraint": null}, "name": "conv2d_644", "inbound_nodes": [{"args": [{"class_name": "__keras_tensor__", "config": {"shape": [null, 32, 32, 256], "dtype": "float32", "keras_history": ["batch_normalization_647", 0, 0]}}], "kwargs": {}}]}, {"class_name": "BatchNormalization", "config": {"name": "batch_normalization_648", "trainable": true, "dtype": "float32", "axis": -1, "momentum": 0.99, "epsilon": 0.001, "center": true, "scale": true, "beta_initializer": {"module": "keras.initializers", "class_name": "Zeros", "config": {}, "registered_name": null}, "gamma_initializer": {"module": "keras.initializers", "class_name": "Ones", "config": {}, "registered_name": null}, "moving_mean_initializer": {"module": "keras.initializers", "class_name": "Zeros", "config": {}, "registered_name": null}, "moving_variance_initializer": {"module": "keras.initializers", "class_name": "Ones", "config": {}, "registered_name": null}, "beta_regularizer": null, "gamma_regularizer": null, "beta_constraint": null, "gamma_constraint": null, "synchronized": false}, "name": "batch_normalization_648", "inbound_nodes": [{"args": [{"class_name": "__keras_tensor__", "config": {"shape": [null, 32, 32, 256], "dtype": "float32", "keras_history": ["conv2d_644", 0, 0]}}], "kwargs": {"mask": null}}]}, {"class_name": "Add", "config": {"name": "add_308", "trainable": true, "dtype": "float32"}, "name": "add_308", "inbound_nodes": [{"args": [[{"class_name": "__keras_tensor__", "config": {"shape": [null, 32, 32, 256], "dtype": "float32", "keras_history": ["batch_normalization_646", 0, 0]}}, {"class_name": "__keras_tensor__", "config": {"shape": [null, 32, 32, 256], "dtype": "float32", "keras_history": ["batch_normalization_648", 0, 0]}}]], "kwargs": {}}]}, {"class_name": "Conv2D", "config": {"name": "conv2d_645", "trainable": true, "dtype": "float32", "filters": 256, "kernel_size": [3, 3], "strides": [1, 1], "padding": "same", "data_format": "channels_last", "dilation_rate": [1, 1], "groups": 1, "activation": "linear", "use_bias": true, "kernel_initializer": {"module": "keras.initializers", "class_name": "GlorotUniform", "config": {"seed": null}, "registered_name": null}, "bias_initializer": {"module": "keras.initializers", "class_name": "Zeros", "config": {}, "registered_name": null}, "kernel_regularizer": null, "bias_regularizer": null, "activity_regularizer": null, "kernel_constraint": null, "bias_constraint": null}, "name": "conv2d_645", "inbound_nodes": [{"args": [{"class_name": "__keras_tensor__", "config": {"shape": [null, 32, 32, 256], "dtype": "float32", "keras_history": ["add_308", 0, 0]}}], "kwargs": {}}]}, {"class_name": "LeakyReLU", "config": {"name": "leaky_re_lu_340", "trainable": true, "dtype": "float32", "negative_slope": 0.2}, "name": "leaky_re_lu_340", "inbound_nodes": [{"args": [{"class_name": "__keras_tensor__", "config": {"shape": [null, 32, 32, 256], "dtype": "float32", "keras_history": ["conv2d_645", 0, 0]}}], "kwargs": {}}]}, {"class_name": "BatchNormalization", "config": {"name": "batch_normalization_649", "trainable": true, "dtype": "float32", "axis": -1, "momentum": 0.99, "epsilon": 0.001, "center": true, "scale": true, "beta_initializer": {"module": "keras.initializers", "class_name": "Zeros", "config": {}, "registered_name": null}, "gamma_initializer": {"module": "keras.initializers", "class_name": "Ones", "config": {}, "registered_name": null}, "moving_mean_initializer": {"module": "keras.initializers", "class_name": "Zeros", "config": {}, "registered_name": null}, "moving_variance_initializer": {"module": "keras.initializers", "class_name": "Ones", "config": {}, "registered_name": null}, "beta_regularizer": null, "gamma_regularizer": null, "beta_constraint": null, "gamma_constraint": null, "synchronized": false}, "name": "batch_normalization_649", "inbound_nodes": [{"args": [{"class_name": "__keras_tensor__", "config": {"shape": [null, 32, 32, 256], "dtype": "float32", "keras_history": ["leaky_re_lu_340", 0, 0]}}], "kwargs": {"mask": null}}]}, {"class_name": "Conv2D", "config": {"name": "conv2d_646", "trainable": true, "dtype": "float32", "filters": 256, "kernel_size": [3, 3], "strides": [1, 1], "padding": "same", "data_format": "channels_last", "dilation_rate": [1, 1], "groups": 1, "activation": "linear", "use_bias": true, "kernel_initializer": {"module": "keras.initializers", "class_name": "GlorotUniform", "config": {"seed": null}, "registered_name": null}, "bias_initializer": {"module": "keras.initializers", "class_name": "Zeros", "config": {}, "registered_name": null}, "kernel_regularizer": null, "bias_regularizer": null, "activity_regularizer": null, "kernel_constraint": null, "bias_constraint": null}, "name": "conv2d_646", "inbound_nodes": [{"args": [{"class_name": "__keras_tensor__", "config": {"shape": [null, 32, 32, 256], "dtype": "float32", "keras_history": ["batch_normalization_649", 0, 0]}}], "kwargs": {}}]}, {"class_name": "BatchNormalization", "config": {"name": "batch_normalization_650", "trainable": true, "dtype": "float32", "axis": -1, "momentum": 0.99, "epsilon": 0.001, "center": true, "scale": true, "beta_initializer": {"module": "keras.initializers", "class_name": "Zeros", "config": {}, "registered_name": null}, "gamma_initializer": {"module": "keras.initializers", "class_name": "Ones", "config": {}, "registered_name": null}, "moving_mean_initializer": {"module": "keras.initializers", "class_name": "Zeros", "config": {}, "registered_name": null}, "moving_variance_initializer": {"module": "keras.initializers", "class_name": "Ones", "config": {}, "registered_name": null}, "beta_regularizer": null, "gamma_regularizer": null, "beta_constraint": null, "gamma_constraint": null, "synchronized": false}, "name": "batch_normalization_650", "inbound_nodes": [{"args": [{"class_name": "__keras_tensor__", "config": {"shape": [null, 32, 32, 256], "dtype": "float32", "keras_history": ["conv2d_646", 0, 0]}}], "kwargs": {"mask": null}}]}, {"class_name": "Add", "config": {"name": "add_309", "trainable": true, "dtype": "float32"}, "name": "add_309", "inbound_nodes": [{"args": [[{"class_name": "__keras_tensor__", "config": {"shape": [null, 32, 32, 256], "dtype": "float32", "keras_history": ["add_308", 0, 0]}}, {"class_name": "__keras_tensor__", "config": {"shape": [null, 32, 32, 256], "dtype": "float32", "keras_history": ["batch_normalization_650", 0, 0]}}]], "kwargs": {}}]}, {"class_name": "Conv2D", "config": {"name": "conv2d_647", "trainable": true, "dtype": "float32", "filters": 256, "kernel_size": [3, 3], "strides": [1, 1], "padding": "same", "data_format": "channels_last", "dilation_rate": [1, 1], "groups": 1, "activation": "linear", "use_bias": true, "kernel_initializer": {"module": "keras.initializers", "class_name": "GlorotUniform", "config": {"seed": null}, "registered_name": null}, "bias_initializer": {"module": "keras.initializers", "class_name": "Zeros", "config": {}, "registered_name": null}, "kernel_regularizer": null, "bias_regularizer": null, "activity_regularizer": null, "kernel_constraint": null, "bias_constraint": null}, "name": "conv2d_647", "inbound_nodes": [{"args": [{"class_name": "__keras_tensor__", "config": {"shape": [null, 32, 32, 256], "dtype": "float32", "keras_history": ["add_309", 0, 0]}}], "kwargs": {}}]}, {"class_name": "LeakyReLU", "config": {"name": "leaky_re_lu_341", "trainable": true, "dtype": "float32", "negative_slope": 0.2}, "name": "leaky_re_lu_341", "inbound_nodes": [{"args": [{"class_name": "__keras_tensor__", "config": {"shape": [null, 32, 32, 256], "dtype": "float32", "keras_history": ["conv2d_647", 0, 0]}}], "kwargs": {}}]}, {"class_name": "BatchNormalization", "config": {"name": "batch_normalization_651", "trainable": true, "dtype": "float32", "axis": -1, "momentum": 0.99, "epsilon": 0.001, "center": true, "scale": true, "beta_initializer": {"module": "keras.initializers", "class_name": "Zeros", "config": {}, "registered_name": null}, "gamma_initializer": {"module": "keras.initializers", "class_name": "Ones", "config": {}, "registered_name": null}, "moving_mean_initializer": {"module": "keras.initializers", "class_name": "Zeros", "config": {}, "registered_name": null}, "moving_variance_initializer": {"module": "keras.initializers", "class_name": "Ones", "config": {}, "registered_name": null}, "beta_regularizer": null, "gamma_regularizer": null, "beta_constraint": null, "gamma_constraint": null, "synchronized": false}, "name": "batch_normalization_651", "inbound_nodes": [{"args": [{"class_name": "__keras_tensor__", "config": {"shape": [null, 32, 32, 256], "dtype": "float32", "keras_history": ["leaky_re_lu_341", 0, 0]}}], "kwargs": {"mask": null}}]}, {"class_name": "Conv2D", "config": {"name": "conv2d_648", "trainable": true, "dtype": "float32", "filters": 256, "kernel_size": [3, 3], "strides": [1, 1], "padding": "same", "data_format": "channels_last", "dilation_rate": [1, 1], "groups": 1, "activation": "linear", "use_bias": true, "kernel_initializer": {"module": "keras.initializers", "class_name": "GlorotUniform", "config": {"seed": null}, "registered_name": null}, "bias_initializer": {"module": "keras.initializers", "class_name": "Zeros", "config": {}, "registered_name": null}, "kernel_regularizer": null, "bias_regularizer": null, "activity_regularizer": null, "kernel_constraint": null, "bias_constraint": null}, "name": "conv2d_648", "inbound_nodes": [{"args": [{"class_name": "__keras_tensor__", "config": {"shape": [null, 32, 32, 256], "dtype": "float32", "keras_history": ["batch_normalization_651", 0, 0]}}], "kwargs": {}}]}, {"class_name": "BatchNormalization", "config": {"name": "batch_normalization_652", "trainable": true, "dtype": "float32", "axis": -1, "momentum": 0.99, "epsilon": 0.001, "center": true, "scale": true, "beta_initializer": {"module": "keras.initializers", "class_name": "Zeros", "config": {}, "registered_name": null}, "gamma_initializer": {"module": "keras.initializers", "class_nam…
": [256], "dtype": "float32"}, {"name": "batch_normalization_647/beta", "shape": [256], "dtype": "float32"}, {"name": "batch_normalization_647/moving_mean", "shape": [256], "dtype": "float32"}, {"name": "batch_normalization_647/moving_variance", "shape": [256], "dtype": "float32"}, {"name": "batch_normalization_648/gamma", "shape": [256], "dtype": "float32"}, {"name": "batch_normalization_648/beta", "shape": [256], "dtype": "float32"}, {"name": "batch_normalization_648/moving_mean", "shape": [256], "dtype": "float32"}, {"name": "batch_normalization_648/moving_variance", "shape": [256], "dtype": "float32"}, {"name": "batch_normalization_649/gamma", "shape": [256], "dtype": "float32"}, {"name": "batch_normalization_649/beta", "shape": [256], "dtype": "float32"}, {"name": "batch_normalization_649/moving_mean", "shape": [256], "dtype": "float32"}, {"name": "batch_normalization_649/moving_variance", "shape": [256], "dtype": "float32"}, {"name": "batch_normalization_650/gamma", "shape": [256], "dtype": "float32"}, {"name": "batch_normalization_650/beta", "shape": [256], "dtype": "float32"}, {"name": "batch_normalization_650/moving_mean", "shape": [256], "dtype": "float32"}, {"name": "batch_normalization_650/moving_variance", "shape": [256], "dtype": "float32"}, {"name": "batch_normalization_651/gamma", "shape": [256], "dtype": "float32"}, {"name": "batch_normalization_651/beta", "shape": [256], "dtype": "float32"}, {"name": "batch_normalization_651/moving_mean", "shape": [256], "dtype": "float32"}, {"name": "batch_normalization_651/moving_variance", "shape": [256], "dtype": "float32"}, {"name": "batch_normalization_652/gamma", "shape": [256], "dtype": "float32"}, {"name": "batch_normalization_652/beta", "shape": [256], "dtype": "float32"}, {"name": "batch_normalization_652/moving_mean", "shape": [256], "dtype": "float32"}, {"name": "batch_normalization_652/moving_variance", "shape": [256], "dtype": "float32"}, {"name": "batch_normalization_653/gamma", "shape": [256], "dtype": "float32"}, {"name": "batch_normalization_653/beta", "shape": [256], "dtype": "float32"}, {"name": "batch_normalization_653/moving_mean", "shape": [256], "dtype": "float32"}, {"name": "batch_normalization_653/moving_variance", "shape": [256], "dtype": "float32"}, {"name": "batch_normalization_654/gamma", "shape": [256], "dtype": "float32"}, {"name": "batch_normalization_654/beta", "shape": [256], "dtype": "float32"}, {"name": "batch_normalization_654/moving_mean", "shape": [256], "dtype": "float32"}, {"name": "batch_normalization_654/moving_variance", "shape": [256], "dtype": "float32"}, {"name": "batch_normalization_655/gamma", "shape": [256], "dtype": "float32"}, {"name": "batch_normalization_655/beta", "shape": [256], "dtype": "float32"}, {"name": "batch_normalization_655/moving_mean", "shape": [256], "dtype": "float32"}, {"name": "batch_normalization_655/moving_variance", "shape": [256], "dtype": "float32"}, {"name": "batch_normalization_656/gamma", "shape": [256], "dtype": "float32"}, {"name": "batch_normalization_656/beta", "shape": [256], "dtype": "float32"}, {"name": "batch_normalization_656/moving_mean", "shape": [256], "dtype": "float32"}, {"name": "batch_normalization_656/moving_variance", "shape": [256], "dtype": "float32"}, {"name": "batch_normalization_657/gamma", "shape": [256], "dtype": "float32"}, {"name": "batch_normalization_657/beta", "shape": [256], "dtype": "float32"}, {"name": "batch_normalization_657/moving_mean", "shape": [256], "dtype": "float32"}, {"name": "batch_normalization_657/moving_variance", "shape": [256], "dtype": "float32"}, {"name": "batch_normalization_658/gamma", "shape": [256], "dtype": "float32"}, {"name": "batch_normalization_658/beta", "shape": [256], "dtype": "float32"}, {"name": "batch_normalization_658/moving_mean", "shape": [256], "dtype": "float32"}, {"name": "batch_normalization_658/moving_variance", "shape": [256], "dtype": "float32"}, {"name": "batch_normalization_659/gamma", "shape": [256], "dtype": "float32"}, {"name": "batch_normalization_659/beta", "shape": [256], "dtype": "float32"}, {"name": "batch_normalization_659/moving_mean", "shape": [256], "dtype": "float32"}, {"name": "batch_normalization_659/moving_variance", "shape": [256], "dtype": "float32"}, {"name": "batch_normalization_660/gamma", "shape": [256], "dtype": "float32"}, {"name": "batch_normalization_660/beta", "shape": [256], "dtype": "float32"}, {"name": "batch_normalization_660/moving_mean", "shape": [256], "dtype": "float32"}, {"name": "batch_normalization_660/moving_variance", "shape": [256], "dtype": "float32"}, {"name": "batch_normalization_661/gamma", "shape": [256], "dtype": "float32"}, {"name": "batch_normalization_661/beta", "shape": [256], "dtype": "float32"}, {"name": "batch_normalization_661/moving_mean", "shape": [256], "dtype": "float32"}, {"name": "batch_normalization_661/moving_variance", "shape": [256], "dtype": "float32"}, {"name": "batch_normalization_662/gamma", "shape": [256], "dtype": "float32"}, {"name": "batch_normalization_662/beta", "shape": [256], "dtype": "float32"}, {"name": "batch_normalization_662/moving_mean", "shape": [256], "dtype": "float32"}, {"name": "batch_normalization_662/moving_variance", "shape": [256], "dtype": "float32"}, {"name": "batch_normalization_663/gamma", "shape": [256], "dtype": "float32"}, {"name": "batch_normalization_663/beta", "shape": [256], "dtype": "float32"}, {"name": "batch_normalization_663/moving_mean", "shape": [256], "dtype": "float32"}, {"name": "batch_normalization_663/moving_variance", "shape": [256], "dtype": "float32"}, {"name": "batch_normalization_664/gamma", "shape": [256], "dtype": "float32"}, {"name": "batch_normalization_664/beta", "shape": [256], "dtype": "float32"}, {"name": "batch_normalization_664/moving_mean", "shape": [256], "dtype": "float32"}, {"name": "batch_normalization_664/moving_variance", "shape": [256], "dtype": "float32"}, {"name": "batch_normalization_665/gamma", "shape": [256], "dtype": "float32"}, {"name": "batch_normalization_665/beta", "shape": [256], "dtype": "float32"}, {"name": "batch_normalization_665/moving_mean", "shape": [256], "dtype": "float32"}, {"name": "batch_normalization_665/moving_variance", "shape": [256], "dtype": "float32"}, {"name": "batch_normalization_666/gamma", "shape": [256], "dtype": "float32"}, {"name": "batch_normalization_666/beta", "shape": [256], "dtype": "float32"}, {"name": "batch_normalization_666/moving_mean", "shape": [256], "dtype": "float32"}, {"name": "batch_normalization_666/moving_variance", "shape": [256], "dtype": "float32"}, {"name": "batch_normalization_667/gamma", "shape": [256], "dtype": "float32"}, {"name": "batch_normalization_667/beta", "shape": [256], "dtype": "float32"}, {"name": "batch_normalization_667/moving_mean", "shape": [256], "dtype": "float32"}, {"name": "batch_normalization_667/moving_variance", "shape": [256], "dtype": "float32"}, {"name": "batch_normalization_668/gamma", "shape": [256], "dtype": "float32"}, {"name": "batch_normalization_668/beta", "shape": [256], "dtype": "float32"}, {"name": "batch_normalization_668/moving_mean", "shape": [256], "dtype": "float32"}, {"name": "batch_normalization_668/moving_variance", "shape": [256], "dtype": "float32"}, {"name": "batch_normalization_669/gamma", "shape": [256], "dtype": "float32"}, {"name": "batch_normalization_669/beta", "shape": [256], "dtype": "float32"}, {"name": "batch_normalization_669/moving_mean", "shape": [256], "dtype": "float32"}, {"name": "batch_normalization_669/moving_variance", "shape": [256], "dtype": "float32"}, {"name": "batch_normalization_670/gamma", "shape": [256], "dtype": "float32"}, {"name": "batch_normalization_670/beta", "shape": [256], "dtype": "float32"}, {"name": "batch_normalization_670/moving_mean", "shape": [256], "dtype": "float32"}, {"name": "batch_normalization_670/moving_variance", "shape": [256], "dtype": "float32"}, {"name": "batch_normalization_671/gamma", "shape": [256], "dtype": "float32"}, {"name": "batch_normalization_671/beta", "shape": [256], "dtype": "float32"}, {"name": "batch_normalization_671/moving_mean", "shape": [256], "dtype": "float32"}, {"name": "batch_normalization_671/moving_variance", "shape": [256], "dtype": "float32"}, {"name": "batch_normalization_672/gamma", "shape": [256], "dtype": "float32"}, {"name": "batch_normalization_672/beta", "shape": [256], "dtype": "float32"}, {"name": "batch_normalization_672/moving_mean", "shape": [256], "dtype": "float32"}, {"name": "batch_normalization_672/moving_variance", "shape": [256], "dtype": "float32"}, {"name": "batch_normalization_673/gamma", "shape": [256], "dtype": "float32"}, {"name": "batch_normalization_673/beta", "shape": [256], "dtype": "float32"}, {"name": "batch_normalization_673/moving_mean", "shape": [256], "dtype": "float32"}, {"name": "batch_normalization_673/moving_variance", "shape": [256], "dtype": "float32"}, {"name": "batch_normalization_674/gamma", "shape": [256], "dtype": "float32"}, {"name": "batch_normalization_674/beta", "shape": [256], "dtype": "float32"}, {"name": "batch_normalization_674/moving_mean", "shape": [256], "dtype": "float32"}, {"name": "batch_normalization_674/moving_variance", "shape": [256], "dtype": "float32"}, {"name": "batch_normalization_675/gamma", "shape": [128], "dtype": "float32"}, {"name": "batch_normalization_675/beta", "shape": [128], "dtype": "float32"}, {"name": "batch_normalization_675/moving_mean", "shape": [128], "dtype": "float32"}, {"name": "batch_normalization_675/moving_variance", "shape": [128], "dtype": "float32"}, {"name": "batch_normalization_676/gamma", "shape": [128], "dtype": "float32"}, {"name": "batch_normalization_676/beta", "shape": [128], "dtype": "float32"}, {"name": "batch_normalization_676/moving_mean", "shape": [128], "dtype": "float32"}, {"name": "batch_normalization_676/moving_variance", "shape": [128], "dtype": "float32"}, {"name": "batch_normalization_677/gamma", "shape": [128], "dtype": "float32"}, {"name": "batch_normalization_677/beta", "shape": [128], "dtype": "float32"}, {"name": "batch_normalization_677/moving_mean", "shape": [128], "dtype": "float32"}, {"name": "batch_normalization_677/moving_variance", "shape": [128], "dtype": "float32"}, {"name": "batch_normalization_678/gamma", "shape": [128], "dtype": "float32"}, {"name": "batch_normalization_678/beta", "shape": [128], "dtype": "float32"}, {"name": "batch_normalization_678/moving_mean", "shape": [128], "dtype": "float32"}, {"name": "batch_normalization_678/moving_variance", "shape": [128], "dtype": "float32"}, {"name": "batch_normalization_679/gamma", "shape": [128], "dtype": "float32"}, {"name": "batch_normalization_679/beta", "shape": [128], "dtype": "float32"}, {"name": "batch_normalization_679/moving_mean", "shape": [128], "dtype": "float32"}, {"name": "batch_normalization_679/moving_variance", "shape": [128], "dtype": "float32"}, {"name": "batch_normalization_680/gamma", "shape": [128], "dtype": "float32"}, {"name": "batch_normalization_680/beta", "shape": [128], "dtype": "float32"}, {"name": "batch_normalization_680/moving_mean", "shape": [128], "dtype": "float32"}, {"name": "batch_normalization_680/moving_variance", "shape": [128], "dtype": "float32"}, {"name": "batch_normalization_681/gamma", "shape": [128], "dtype": "float32"}, {"name": "batch_normalization_681/beta", "shape": [128], "dtype": "float32"}, {"name": "batch_normalization_681/moving_mean", "shape": [128], "dtype": "float32"}, {"name": "batch_normalization_681/moving_variance", "shape": [128], "dtype": "float32"}, {"name": "batch_normalization_682/gamma", "shape": [128], "dtype": "float32"}, {"name": "batch_normalization_682/beta", "shape": [128], "dtype": "float32"}, {"name": "batch_normalization_682/moving_mean", "shape": [128], "dtype": "float32"}, {"name": "batch_normalization_682/moving_variance", "shape": [128], "dtype": "float32"}, {"name": "batch_normalization_683/gamma", "shape": [128], "dtype": "float32"}, {"name": "batch_normalization_683/beta", "shape": [128], "dtype": "float32"}, {"name": "batch_normalization_683/moving_mean", "shape": [128], "dtype": "float32"}, {"name": "batch_normalization_683/moving_variance", "shape": [128], "dtype": "float32"}, {"name": "batch_normalization_684/gamma", "shape": [128], "dtype": "float32"}, {"name": "batch_normalization_684/beta", "shape": [128], "dtype": "float32"}, {"name": "batch_normalization_684/moving_mean", "shape": [128], "dtype": "float32"}, {"name": "batch_normalization_684/moving_variance", "shape": [128], "dtype": "float32"}, {"name": "batch_normalization_685/gamma", "shape": [128], "dtype": "float32"}, {"name": "batch_normalization_685/beta", "shape": [128], "dtype": "float32"}, {"name": "batch_normalization_685/moving_mean", "shape": [128], "dtype": "float32"}, {"name": "batch_normalization_685/moving_variance", "shape": [128], "dtype": "float32"}, {"name": "batch_normalization_686/gamma", "shape": [128], "dtype": "float32"}, {"name": "batch_normalization_686/beta", "shape": [128], "dtype": "float32"}, {"name": "batch_normalization_686/moving_mean", "shape": [128], "dtype": "float32"}, {"name": "batch_normalization_686/moving_variance", "shape": [128], "dtype": "float32"}, {"name": "batch_normalization_687/gamma", "shape": [128], "dtype": "float32"}, {"name": "batch_normalization_687/beta", "shape": [128], "dtype": "float32"}, {"name": "batch_normalization_687/moving_mean", "shape": [128], "dtype": "float32"}, {"name": "batch_normalization_687/moving_variance", "shape": [128], "dtype": "float32"}, {"name": "batch_normalization_688/gamma", "shape": [128], "dtype": "float32"}, {"name": "batch_normalization_688/beta", "shape": [128], "dtype": "float32"}, {"name": "batch_normalization_688/moving_mean", "shape": [128], "dtype": "float32"}, {"name": "batch_normalization_688/moving_variance", "shape": [128], "dtype": "float32"}, {"name": "batch_normalization_689/gamma", "shape": [128], "dtype": "float32"}, {"name": "batch_normalization_689/beta", "shape": [128], "dtype": "float32"}, {"name": "batch_normalization_689/moving_mean", "shape": [128], "dtype": "float32"}, {"name": "batch_normalization_689/moving_variance", "shape": [128], "dtype": "float32"}, {"name": "batch_normalization_690/gamma", "shape": [128], "dtype": "float32"}, {"name": "batch_normalization_690/beta", "shape": [128], "dtype": "float32"}, {"name": "batch_normalization_690/moving_mean", "shape": [128], "dtype": "float32"}, {"name": "batch_normalization_690/moving_variance", "shape": [128], "dtype": "float32"}, {"name": "batch_normalization_691/gamma", "shape": [128], "dtype": "float32"}, {"name": "batch_normalization_691/beta", "shape": [128], "dtype": "float32"}, {"name": "batch_normalization_691/moving_mean", "shape": [128], "dtype": "float32"}, {"name": "batch_normalization_691/moving_variance", "shape": [128], "dtype": "float32"}, {"name": "batch_normalization_692/gamma", "shape": [128], "dtype": "float32"}, {"name": "batch_normalization_692/beta", "shape": [128], "dtype": "float32"}, {"name": "batch_normalization_692/moving_mean", "shape": [128], "dtype": "float32"}, {"name": "batch_normalization_692/moving_variance", "shape": [128], "dtype": "float32"}, {"name": "batch_normalization_693/gamma", "shape": [128], "dtype": "float32"}, {"name": "batch_normalization_693/beta", "shape": [128], "dtype": "float32"}, {"name": "batch_normalization_693/moving_mean", "shape": [128], "dtype": "float32"}, {"name": "batch_normalization_693/moving_variance", "shape": [128], "dtype": "float32"}, {"name": "batch_normalization_694/gamma", "shape": [128], "dtype": "float32"}, {"name": "batch_normalization_694/beta", "shape": [128], "dtype": "float32"}, {"name": "batch_normalization_694/moving_mean", "shape": [128], "dtype": "float32"}, {"name": "batch_normalization_694/moving_variance", "shape": [128], "dtype": "float32"}, {"name": "batch_normalization_695/gamma", "shape": [128], "dtype": "float32"}, {"name": "batch_normalization_695/beta", "shape": [128], "dtype": "float32"}, {"name": "batch_normalization_695/moving_mean", "shape": [128], "dtype": "float32"}, {"name": "batch_normalization_695/moving_variance", "shape": [128], "dtype": "float32"}, {"name": "batch_normalization_696/gamma", "shape": [128], "dtype": "float32"}, {"name": "batch_normalization_696/beta", "shape": [128], "dtype": "float32"}, {"name": "batch_normalization_696/moving_mean", "shape": [128], "dtype": "float32"}, {"name": "batch_normalization_696/moving_variance", "shape": [128], "dtype": "float32"}, {"name": "batch_normalization_697/gamma", "shape": [128], "dtype": "float32"}, {"name": "batch_normalization_697/beta", "shape": [128], "dtype": "float32"}, {"name": "batch_normalization_697/moving_mean", "shape": [128], "dtype": "float32"}, {"name": "batch_normalization_697/moving_variance", "shape": [128], "dtype": "float32"}, {"name": "batch_normalization_698/gamma", "shape": [128], "dtype": "float32"}, {"name": "batch_normalization_698/beta", "shape": [128], "dtype": "float32"}, {"name": "batch_normalization_698/moving_mean", "shape": [128], "dtype": "float32"}, {"name": "batch_normalization_698/moving_variance", "shape": [128], "dtype": "float32"}, {"name": "batch_normalization_699/gamma", "shape": [128], "dtype": "float32"}, {"name": "batch_normalization_699/beta", "shape": [128], "dtype": "float32"}, {"name": "batch_normalization_699/moving_mean", "shape": [128], "dtype": "float32"}, {"name": "batch_normalization_699/moving_variance", "shape": [128], "dtype": "float32"}, {"name": "batch_normalization_700/gamma", "shape": [128], "dtype": "float32"}, {"name": "batch_normalization_700/beta", "shape": [128], "dtype": "float32"}, {"name": "batch_normalization_700/moving_mean", "shape": [128], "dtype": "float32"}, {"name": "batch_normalization_700/moving_variance", "shape": [128], "dtype": "float32"}, {"name": "batch_normalization_701/gamma", "shape": [128], "dtype": "float32"}, {"name": "batch_normalization_701/beta", "shape": [128], "dtype": "float32"}, {"name": "batch_normalization_701/moving_mean", "shape": [128], "dtype": "float32"}, {"name": "batch_normalization_701/moving_variance", "shape": [128], "dtype": "float32"}, {"name": "batch_normalization_702/gamma", "shape": [128], "dtype": "float32"}, {"name": "batch_normalization_702/beta", "shape": [128], "dtype": "float32"}, {"name": "batch_normalization_702/moving_mean", "shape": [128], "dtype": "float32"}, {"name": "batch_normalization_702/moving_variance", "shape": [128], "dtype": "float32"}, {"name": "batch_normalization_703/gamma", "shape": [128], "dtype": "float32"}, {"name": "batch_normalization_703/beta", "shape": [128], "dtype": "float32"}, {"name": "batch_normalization_703/moving_mean", "shape": [128], "dtype": "float32"}, {"name": "batch_normalization_703/moving_variance", "shape": [128], "dtype": "float32"}, {"name": "batch_normalization_704/gamma", "shape": [64], "dtype": "float32"}, {"name": "batch_normalization_704/beta", "shape": [64], "dtype": "float32"}, {"name": "batch_normalization_704/moving_mean", "shape": [64], "dtype": "float32"}, {"name": "batch_normalization_704/moving_variance", "shape": [64], "dtype": "float32"}, {"name": "batch_normalization_705/gamma", "shape": [64], "dtype": "float32"}, {"name": "batch_normalization_705/beta", "shape": [64], "dtype": "float32"}, {"name": "batch_normalization_705/moving_mean", "shape": [64], "dtype": "float32"}, {"name": "batch_normalization_705/moving_variance", "shape": [64], "dtype": "float32"}, {"name": "batch_normalization_706/gamma", "shape": [64], "dtype": "float32"}, {"name": "batch_normalization_706/beta", "shape": [64], "dtype": "float32"}, {"name": "batch_normalization_706/moving_mean", "shape": [64], "dtype": "float32"}, {"name": "batch_normalization_706/moving_variance", "shape": [64], "dtype": "float32"}, {"name": "batch_normalization_707/gamma", "shape": [64], "dtype": "float32"}, {"name": "batch_normalization_707/beta", "shape": [64], "dtype": "float32"}, {"name": "batch_normalization_707/moving_mean", "shape": [64], "dtype": "float32"}, {"name": "batch_normalization_707/moving_variance", "shape": [64], "dtype": "float32"}, {"name": "batch_normalization_708/gamma", "shape": [64], "dtype": "float32"}, {"name": "batch_normalization_708/beta", "shape": [64], "dtype": "float32"}, {"name": "batch_normalization_708/moving_mean", "shape": [64], "dtype": "float32"}, {"name": "batch_normalization_708/moving_variance", "shape": [64], "dtype": "float32"}, {"name": "batch_normalization_709/gamma", "shape": [64], "dtype": "float32"}, {"name": "batch_normalization_709/beta", "shape": [64], "dtype": "float32"}, {"name": "batch_normalization_709/moving_mean", "shape": [64], "dtype": "float32"}, {"name": "batch_normalization_709/moving_variance", "shape": [64], "dtype": "float32"}, {"name": "batch_normalization_710/gamma", "shape": [64], "dtype": "float32"}, {"name": "batch_normalization_710/beta", "shape": [64], "dtype": "float32"}, {"name": "batch_normalization_710/moving_mean", "shape": [64], "dtype": "float32"}, {"name": "batch_normalization_710/moving_variance", "shape": [64], "dtype": "float32"}, {"name": "batch_normalization_711/gamma", "shape": [64], "dtype": "float32"}, {"name": "batch_normalization_711/beta", "shape": [64], "dtype": "float32"}, {"name": "batch_normalization_711/moving_mean", "shape": [64], "dtype": "float32"}, {"name": "batch_normalization_711/moving_variance", "shape": [64], "dtype": "float32"}, {"name": "batch_normalization_712/gamma", "shape": [64], "dtype": "float32"}, {"name": "batch_normalization_712/beta", "shape": [64], "dtype": "float32"}, {"name": "batch_normalization_712/moving_mean", "shape": [64], "dtype": "float32"}, {"name": "batch_normalization_712/moving_variance", "shape": [64], "dtype": "float32"}, {"name": "batch_normalization_713/gamma", "shape": [64], "dtype": "float32"}, {"name": "batch_normalization_713/beta", "shape": [64], "dtype": "float32"}, {"name": "batch_normalization_713/moving_mean", "shape": [64], "dtype": "float32"}, {"name": "batch_normalization_713/moving_variance", "shape": [64], "dtype": "float32"}, {"name": "batch_normalization_714/gamma", "shape": [64], "dtype": "float32"}, {"name": "batch_normalization_714/beta", "shape": [64], "dtype": "float32"}, {"name": "batch_normalization_714/moving_mean", "shape": [64], "dtype": "float32"}, {"name": "batch_normalization_714/moving_variance", "shape": [64], "dtype": "float32"}, {"name": "batch_normalization_715/gamma", "shape": [64], "dtype": "float32"}, {"name": "batch_normalization_715/beta", "shape": [64], "dtype": "float32"}, {"name": "batch_normalization_715/moving_mean", "shape": [64], "dtype": "float32"}, {"name": "batch_normalization_715/moving_variance", "shape": [64], "dtype": "float32"}, {"name": "batch_normalization_716/gamma", "shape": [64], "dtype": "float32"}, {"name": "batch_normalization_716/beta", "shape": [64], "dtype": "float32"}, {"name": "batch_normalization_716/moving_mean", "shape": [64], "dtype": "float32"}, {"name": "batch_normalization_716/moving_variance", "shape": [64], "dtype": "float32"}, {"name": "batch_normalization_717/gamma", "shape": [64], "dtype": "float32"}, {"name": "batch_normalization_717/beta", "shape": [64], "dtype": "float32"}, {"name": "batch_normalization_717/moving_mean", "shape": [64], "dtype": "float32"}, {"name": "batch_normalization_717/moving_variance", "shape": [64], "dtype": "float32"}, {"name": "batch_normalization_718/gamma", "shape": [64], "dtype": "float32"}, {"name": "batch_normalization_718/beta", "shape": [64], "dtype": "float32"}, {"name": "batch_normalization_718/moving_mean", "shape": [64], "dtype": "float32"}, {"name": "batch_normalization_718/moving_variance", "shape": [64], "dtype": "float32"}, {"name": "batch_normalization_719/gamma", "shape": [64], "dtype": "float32"}, {"name": "batch_normalization_719/beta", "shape": [64], "dtype": "float32"}, {"name": "batch_normalization_719/moving_mean", "shape": [64], "dtype": "float32"}, {"name": "batch_normalization_719/moving_variance", "shape": [64], "dtype": "float32"}, {"name": "batch_normalization_720/gamma", "shape": [64], "dtype": "float32"}, {"name": "batch_normalization_720/beta", "shape": [64], "dtype": "float32"}, {"name": "batch_normalization_720/moving_mean", "shape": [64], "dtype": "float32"}, {"name": "batch_normalization_720/moving_variance", "shape": [64], "dtype": "float32"}, {"name": "batch_normalization_721/gamma", "shape": [64], "dtype": "float32"}, {"name": "batch_normalization_721/beta", "shape": [64], "dtype": "float32"}, {"name": "batch_normalization_721/moving_mean", "shape": [64], "dtype": "float32"}, {"name": "batch_normalization_721/moving_variance", "shape": [64], "dtype": "float32"}, {"name": "batch_normalization_722/gamma", "shape": [64], "dtype": "float32"}, {"name": "batch_normalization_722/beta", "shape": [64], "dtype": "float32"}, {"name": "batch_normalization_722/moving_mean", "shape": [64], "dtype": "float32"}, {"name": "batch_normalization_722/moving_variance", "shape": [64], "dtype": "float32"}, {"name": "batch_normalization_723/gamma", "shape": [64], "dtype": "float32"}, {"name": "batch_normalization_723/beta", "shape": [64], "dtype": "float32"}, {"name": "batch_normalization_723/moving_mean", "shape": [64], "dtype": "float32"}, {"name": "batch_normalization_723/moving_variance", "shape": [64], "dtype": "float32"}, {"name": "batch_normalization_724/gamma", "shape": [64], "dtype": "float32"}, {"name": "batch_normalization_724/beta", "shape": [64], "dtype": "float32"}, {"name": "batch_normalization_724/moving_mean", "shape": [64], "dtype": "float32"}, {"name": "batch_normalization_724/moving_variance", "shape": [64], "dtype": "float32"}, {"name": "batch_normalization_725/gamma", "shape": [64], "dtype": "float32"}, {"name": "batch_normalization_725/beta", "shape": [64], "dtype": "float32"}, {"name": "batch_normalization_725/moving_mean", "shape": [64], "dtype": "float32"}, {"name": "batch_normalization_725/moving_variance", "shape": [64], "dtype": "float32"}, {"name": "batch_normalization_726/gamma", "shape": [64], "dtype": "float32"}, {"name": "batch_normalization_726/beta", "shape": [64], "dtype": "float32"}, {"name": "batch_normalization_726/moving_mean", "shape": [64], "dtype": "float32"}, {"name": "batch_normalization_726/moving_variance", "shape": [64], "dtype": "float32"}, {"name": "batch_normalization_727/gamma", "shape": [64], "dtype": "float32"}, {"name": "batch_normalization_727/beta", "shape": [64], "dtype": "float32"}, {"name": "batch_normalization_727/moving_mean", "shape": [64], "dtype": "float32"}, {"name": "batch_normalization_727/moving_variance", "shape": [64], "dtype": "float32"}, {"name": "batch_normalization_728/gamma", "shape": [64], "dtype": "float32"}, {"name": "batch_normalization_728/beta", "shape": [64], "dtype": "float32"}, {"name": "batch_normalization_728/moving_mean", "shape": [64], "dtype": "float32"}, {"name": "batch_normalization_728/moving_variance", "shape": [64], "dtype": "float32"}, {"name": "batch_normalization_729/gamma", "shape": [64], "dtype": "float32"}, {"name": "batch_normalization_729/beta", "shape": [64], "dtype": "float32"}, {"name": "batch_normalization_729/moving_mean", "shape": [64], "dtype": "float32"}, {"name": "batch_normalization_729/moving_variance", "shape": [64], "dtype": "float32"}, {"name": "batch_normalization_730/gamma", "shape": [64], "dtype": "float32"}, {"name": "batch_normalization_730/beta", "shape": [64], "dtype": "float32"}, {"name": "batch_normalization_730/moving_mean", "shape": [64], "dtype": "float32"}, {"name": "batch_normalization_730/moving_variance", "shape": [64], "dtype": "float32"}, {"name": "batch_normalization_731/gamma", "shape": [64], "dtype": "float32"}, {"name": "batch_normalization_731/beta", "shape": [64], "dtype": "float32"}, {"name": "batch_normalization_731/moving_mean", "shape": [64], "dtype": "float32"}, {"name": "batch_normalization_731/moving_variance", "shape": [64], "dtype": "float32"}, {"name": "batch_normalization_732/gamma", "shape": [64], "dtype": "float32"}, {"name": "batch_normalization_732/beta", "shape": [64], "dtype": "float32"}, {"name": "batch_normalization_732/moving_mean", "shape": [64], "dtype": "float32"}, {"name": "batch_normalization_732/moving_variance", "shape": [64], "dtype": "float32"}, {"name": "batch_normalization_733/gamma", "shape": [64], "dtype": "float32"}, {"name": "batch_normalization_733/beta", "shape": [64], "dtype": "float32"}, {"name": "batch_normalization_733/moving_mean", "shape": [64], "dtype": "float32"}, {"name": "batch_normalization_733/moving_variance", "shape": [64], "dtype": "float32"}, {"name": "conv2d_584/kernel", "shape": [3, 3, 3, 64], "dtype": "float32"}, {"name": "conv2d_584/bias", "shape": [64], "dtype": "float32"}, {"name": "conv2d_585/kernel", "shape": [3, 3, 64, 64], "dtype": "float32"}, {"name": "conv2d_585/bias", "shape": [64], "dtype": "float32"}, {"name": "conv2d_586/kernel", "shape": [3, 3, 64, 64], "dtype": "float32"}, {"name": "conv2d_586/bias", "shape": [64], "dtype": "float32"}, {"name": "conv2d_587/kernel", "shape": [3, 3, 64, 64], "dtype": "float32"}, {"name": "conv2d_587/bias", "shape": [64], "dtype": "float32"}, {"name": "conv2d_588/kernel", "shape": [3, 3, 64, 64], "dtype": "float32"}, {"name": "conv2d_588/bias", "shape": [64], "dtype": "float32"}, {"name": "conv2d_589/kernel", "shape": [3, 3, 64, 64], "dtype": "float32"}, {"name": "conv2d_589/bias", "shape": [64], "dtype": "float32"}, {"name": "conv2d_590/kernel", "shape": [3, 3, 64, 64], "dtype": "float32"}, {"name": "conv2d_590/bias", "shape": [64], "dtype": "float32"}, {"name": "conv2d_591/kernel", "shape": [3, 3, 64, 64], "dtype": "float32"}, {"name": "conv2d_591/bias", "shape": [64], "dtype": "float32"}, {"name": "conv2d_592/kernel", "shape": [3, 3, 64, 64], "dtype": "float32"}, {"name": "conv2d_592/bias", "shape": [64], "dtype": "float32"}, {"name": "conv2d_593/kernel", "shape": [3, 3, 64, 64], "dtype": "float32"}, {"name": "conv2d_593/bias", "shape": [64], "dtype": "float32"}, {"name": "conv2d_594/kernel", "shape": [3, 3, 64, 64], "dtype": "float32"}, {"name": "conv2d_594/bias", "shape": [64], "dtype": "float32"}, {"name": "conv2d_595/kernel", "shape": [3, 3, 64, 64], "dtype": "float32"}, {"name": "conv2d_595/bias", "shape": [64], "dtype": "float32"}, {"name": "conv2d_596/kernel", "shape": [3, 3, 64, 64], "dtype": "float32"}, {"name": "conv2d_596/bias", "shape": [64], "dtype": "float32"}, {"name": "conv2d_597/kernel", "shape": [3, 3, 64, 64], "dtype": "float32"}, {"name": "conv2d_597/bias", "shape": [64], "dtype": "float32"}, {"name": "conv2d_598/kernel", "shape": [3, 3, 64, 64], "dtype": "float32"}, {"name": "conv2d_598/bias", "shape": [64], "dtype": "float32"}, {"name": "conv2d_599/kernel", "shape": [3, 3, 64, 64], "dtype": "float32"}, {"name": "conv2d_599/bias", "shape": [64], "dtype": "float32"}, {"name": "conv2d_600/kernel", "shape": [3, 3, 64, 64], "dtype": "float32"}, {"name": "conv2d_600/bias", "shape": [64], "dtype": "float32"}, {"name": "conv2d_601/kernel", "shape": [3, 3, 64, 64], "dtype": "float32"}, {"name": "conv2d_601/bias", "shape": [64], "dtype": "float32"}, {"name": "conv2d_602/kernel", "shape": [3, 3, 64, 64], "dtype": "float32"}, {"name": "conv2d_602/bias", "shape": [64], "dtype": "float32"}, {"name": "conv2d_603/kernel", "shape": [3, 3, 64, 64], "dtype": "float32"}, {"name": "conv2d_603/bias", "shape": [64], "dtype": "float32"}, {"name": "conv2d_604/kernel", "shape": [3, 3, 64, 64], "dtype": "float32"}, {"name": "conv2d_604/bias", "shape": [64], "dtype": "float32"}, {"name": "conv2d_605/kernel", "shape": [3, 3, 64, 64], "dtype": "float32"}, {"name": "conv2d_605/bias", "shape": [64], "dtype": "float32"}, {"name": "conv2d_606/kernel", "shape": [3, 3, 64, 64], "dtype": "float32"}, {"name": "conv2d_606/bias", "shape": [64], "dtype": "float32"}, {"name": "conv2d_607/kernel", "shape": [3, 3, 64, 64], "dtype": "float32"}, {"name": "conv2d_607/bias", "shape": [64], "dtype": "float32"}, {"name": "conv2d_608/kernel", "shape": [3, 3, 64, 64], "dtype": "float32"}, {"name": "conv2d_608/bias", "shape": [64], "dtype": "float32"}, {"name": "conv2d_609/kernel", "shape": [3, 3, 64, 64], "dtype": "float32"}, {"name": "conv2d_609/bias", "shape": [64], "dtype": "float32"}, {"name": "conv2d_610/kernel", "shape": [3, 3, 64, 64], "dtype": "float32"}, {"name": "conv2d_610/bias", "shape": [64], "dtype": "float32"}, {"name": "conv2d_611/kernel", "shape": [3, 3, 64, 64], "dtype": "float32"}, {"name": "conv2d_611/bias", "shape": [64], "dtype": "float32"}, {"name": "conv2d_612/kernel", "shape": [3, 3, 64, 64], "dtype": "float32"}, {"name": "conv2d_612/bias", "shape": [64], "dtype": "float32"}, {"name": "conv2d_613/kernel", "shape": [3, 3, 64, 128], "dtype": "float32"}, {"name": "conv2d_613/bias", "shape": [128], "dtype": "float32"}, {"name": "conv2d_614/kernel", "shape": [3, 3, 128, 128], "dtype": "float32"}, {"name": "conv2d_614/bias", "shape": [128], "dtype": "float32"}, {"name": "conv2d_615/kernel", "shape": [3, 3, 128, 128], "dtype": "float32"}, {"name": "conv2d_615/bias", "shape": [128], "dtype": "float32"}, {"name": "conv2d_616/kernel", "shape": [3, 3, 128, 128], "dtype": "float32"}, {"name": "conv2d_616/bias", "shape": [128], "dtype": "float32"}, {"name": "conv2d_617/kernel", "shape": [3, 3, 128, 128], "dtype": "float32"}, {"name": "conv2d_617/bias", "shape": [128], "dtype": "float32"}, {"name": "conv2d_618/kernel", "shape": [3, 3, 128, 128], "dtype": "float32"}, {"name": "conv2d_618/bias", "shape": [128], "dtype": "float32"}, {"name": "conv2d_619/kernel", "shape": [3, 3, 128, 128], "dtype": "float32"}, {"name": "conv2d_619/bias", "shape": [128], "dtype": "float32"}, {"name": "conv2d_620/kernel", "shape": [3, 3, 128, 128], "dtype": "float32"}, {"name": "conv2d_620/bias", "shape": [128], "dtype": "float32"}, {"name": "conv2d_621/kernel", "shape": [3, 3, 128, 128], "dtype": "float32"}, {"name": "conv2d_621/bias", "shape": [128], "dtype": "float32"}, {"name": "conv2d_622/kernel", "shape": [3, 3, 128, 128], "dtype": "float32"}, {"name": "conv2d_622/bias", "shape": [128], "dtype": "float32"}, {"name": "conv2d_623/kernel", "shape": [3, 3, 128, 128], "dtype": "float32"}, {"name": "conv2d_623/bias", "shape": [128], "dtype": "float32"}, {"name": "conv2d_624/kernel", "shape": [3, 3, 128, 128], "dtype": "float32"}, {"name": "conv2d_624/bias", "shape": [128], "dtype": "float32"}, {"name": "conv2d_625/kernel", "shape": [3, 3, 128, 128], "dtype": "float32"}, {"name": "conv2d_625/bias", "shape": [128], "dtype": "float32"}, {"name": "conv2d_626/kernel", "shape": [3, 3, 128, 128], "dtype": "float32"}, {"name": "conv2d_626/bias", "shape": [128], "dtype": "float32"}, {"name": "conv2d_627/kernel", "shape": [3, 3, 128, 128], "dtype": "float32"}, {"name": "conv2d_627/bias", "shape": [128], "dtype": "float32"}, {"name": "conv2d_628/kernel", "shape": [3, 3, 128, 128], "dtype": "float32"}, {"name": "conv2d_628/bias", "shape": [128], "dtype": "float32"}, {"name": "conv2d_629/kernel", "shape": [3, 3, 128, 128], "dtype": "float32"}, {"name": "conv2d_629/bias", "shape": [128], "dtype": "float32"}, {"name": "conv2d_630/kernel", "shape": [3, 3, 128, 128], "dtype": "float32"}, {"name": "conv2d_630/bias", "shape": [128], "dtype": "float32"}, {"name": "conv2d_631/kernel", "shape": [3, 3, 128, 128], "dtype": "float32"}, {"name": "conv2d_631/bias", "shape": [128], "dtype": "float32"}, {"name": "conv2d_632/kernel", "shape": [3, 3, 128, 128], "dtype": "float32"}, {"name": "conv2d_632/bias", "shape": [128], "dtype": "float32"}, {"name": "conv2d_633/kernel", "shape": [3, 3, 128, 128], "dtype": "float32"}, {"name": "conv2d_633/bias", "shape": [128], "dtype": "float32"}, {"name": "conv2d_634/kernel", "shape": [3, 3, 128, 128], "dtype": "float32"}, {"name": "conv2d_634/bias", "shape": [128], "dtype": "float32"}, {"name": "conv2d_635/kernel", "shape": [3, 3, 128, 128], "dtype": "float32"}, {"name": "conv2d_635/bias", "shape": [128], "dtype": "float32"}, {"name": "conv2d_636/kernel", "shape": [3, 3, 128, 128], "dtype": "float32"}, {"name": "conv2d_636/bias", "shape": [128], "dtype": "float32"}, {"name": "conv2d_637/kernel", "shape": [3, 3, 128, 128], "dtype": "float32"}, {"name": "conv2d_637/bias", "shape": [128], "dtype": "float32"}, {"name": "conv2d_638/kernel", "shape": [3, 3, 128, 128], "dtype": "float32"}, {"name": "conv2d_638/bias", "shape": [128], "dtype": "float32"}, {"name": "conv2d_639/kernel", "shape": [3, 3, 128, 128], "dtype": "float32"}, {"name": "conv2d_639/bias", "shape": [128], "dtype": "float32"}, {"name": "conv2d_640/kernel", "shape": [3, 3, 128, 128], "dtype": "float32"}, {"name": "conv2d_640/bias", "shape": [128], "dtype": "float32"}, {"name": "conv2d_641/kernel", "shape": [3, 3, 128, 128], "dtype": "float32"}, {"name": "conv2d_641/bias", "shape": [128], "dtype": "float32"}, {"name": "conv2d_642/kernel", "shape": [3, 3, 128, 256], "dtype": "float32"}, {"name": "conv2d_642/bias", "shape": [256], "dtype": "float32"}, {"name": "conv2d_643/kernel", "shape": [3, 3, 256, 256], "dtype": "float32"}, {"name": "conv2d_643/bias", "shape": [256], "dtype": "float32"}, {"name": "conv2d_644/kernel", "shape": [3, 3, 256, 256], "dtype": "float32"}, {"name": "conv2d_644/bias", "shape": [256], "dtype": "float32"}, {"name": "conv2d_645/kernel", "shape": [3, 3, 256, 256], "dtype": "float32"}, {"name": "conv2d_645/bias", "shape": [256], "dtype": "float32"}, {"name": "conv2d_646/kernel", "shape": [3, 3, 256, 256], "dtype": "float32"}, {"name": "conv2d_646/bias", "shape": [256], "dtype": "float32"}, {"name": "conv2d_647/kernel", "shape": [3, 3, 256, 256], "dtype": "float32"}, {"name": "conv2d_647/bias", "shape": [256], "dtype": "float32"}, {"name": "conv2d_648/kernel", "shape": [3, 3, 256, 256], "dtype": "float32"}, {"name": "conv2d_648/bias", "shape": [256], "dtype": "float32"}, {"name": "conv2d_649/kernel", "shape": [3, 3, 256, 256], "dtype": "float32"}, {"name": "conv2d_649/bias", "shape": [256], "dtype": "float32"}, {"name": "conv2d_650/kernel", "shape": [3, 3, 256, 256], "dtype": "float32"}, {"name": "conv2d_650/bias", "shape": [256], "dtype": "float32"}, {"name": "conv2d_651/kernel", "shape": [3, 3, 256, 256], "dtype": "float32"}, {"name": "conv2d_651/bias", "shape": [256], "dtype": "float32"}, {"name": "conv2d_652/kernel", "shape": [3, 3, 256, 256], "dtype": "float32"}, {"name": "conv2d_652/bias", "shape": [256], "dtype": "float32"}, {"name": "conv2d_653/kernel", "shape": [3, 3, 256, 256], "dtype": "float32"}, {"name": "conv2d_653/bias", "shape": [256], "dtype": "float32"}, {"name": "conv2d_654/kernel", "shape": [3, 3, 256, 256], "dtype": "float32"}, {"name": "conv2d_654/bias", "shape": [256], "dtype": "float32"}, {"name": "conv2d_655/kernel", "shape": [3, 3, 256, 256], "dtype": "float32"}, {"name": "conv2d_655/bias", "shape": [256], "dtype": "float32"}, {"name": "conv2d_656/kernel", "shape": [3, 3, 256, 256], "dtype": "float32"}, {"name": "conv2d_656/bias", "shape": [256], "dtype": "float32"}, {"name": "conv2d_657/kernel", "shape": [3, 3, 256, 256], "dtype": "float32"}, {"name": "conv2d_657/bias", "shape": [256], "dtype": "float32"}, {"name": "conv2d_658/kernel", "shape": [3, 3, 256, 256], "dtype": "float32"}, {"name": "conv2d_658/bias", "shape": [256], "dtype": "float32"}, {"name": "conv2d_659/kernel", "shape": [3, 3, 256, 256], "dtype": "float32"}, {"name": "conv2d_659/bias", "shape": [256], "dtype": "float32"}, {"name": "conv2d_660/kernel", "shape": [3, 3, 256, 256], "dtype": "float32"}, {"name": "conv2d_660/bias", "shape": [256], "dtype": "float32"}, {"name": "conv2d_661/kernel", "shape": [3, 3, 256, 256], "dtype": "float32"}, {"name": "conv2d_661/bias", "shape": [256], "dtype": "float32"}, {"name": "conv2d_662/kernel", "shape": [3, 3, 256, 256], "dtype": "float32"}, {"name": "conv2d_662/bias", "shape": [256], "dtype": "float32"}, {"name": "conv2d_663/kernel", "shape": [3, 3, 256, 256], "dtype": "float32"}, {"name": "conv2d_663/bias", "shape": [256], "dtype": "float32"}, {"name": "conv2d_664/kernel", "shape": [3, 3, 256, 256], "dtype": "float32"}, {"name": "conv2d_664/bias", "shape": [256], "dtype": "float32"}, {"name": "conv2d_665/kernel", "shape": [3, 3, 256, 256], "dtype": "float32"}, {"name": "conv2d_665/bias", "shape": [256], "dtype": "float32"}, {"name": "conv2d_666/kernel", "shape": [3, 3, 256, 256], "dtype": "float32"}, {"name": "conv2d_666/bias", "shape": [256], "dtype": "float32"}, {"name": "conv2d_667/kernel", "shape": [3, 3, 256, 256], "dtype": "float32"}, {"name": "conv2d_667/bias", "shape": [256], "dtype": "float32"}, {"name": "conv2d_668/kernel", "shape": [3, 3, 256, 256], "dtype": "float32"}, {"name": "conv2d_668/bias", "shape": [256], "dtype": "float32"}, {"name": "conv2d_669/kernel", "shape": [3, 3, 256, 256], "dtype": "float32"}, {"name": "conv2d_669/bias", "shape": [256], "dtype": "float32"}, {"name": "conv2d_670/kernel", "shape": [3, 3, 256, 256], "dtype": "float32"}, {"name": "conv2d_670/bias", "shape": [256], "dtype": "float32"}, {"name": "conv2d_671/kernel", "shape": [3, 3, 128, 128], "dtype": "float32"}, {"name": "conv2d_671/bias", "shape": [128], "dtype": "float32"}, {"name": "conv2d_672/kernel", "shape": [3, 3, 128, 128], "dtype": "float32"}, {"name": "conv2d_672/bias", "shape": [128], "dtype": "float32"}, {"name": "conv2d_673/kernel", "shape": [3, 3, 128, 128], "dtype": "float32"}, {"name": "conv2d_673/bias", "shape": [128], "dtype": "float32"}, {"name": "conv2d_674/kernel", "shape": [3, 3, 128, 128], "dtype": "float32"}, {"name": "conv2d_674/bias", "shape": [128], "dtype": "float32"}, {"name": "conv2d_675/kernel", "shape": [3, 3, 128, 128], "dtype": "float32"}, {"name": "conv2d_675/bias", "shape": [128], "dtype": "float32"}, {"name": "conv2d_676/kernel", "shape": [3, 3, 128, 128], "dtype": "float32"}, {"name": "conv2d_676/bias", "shape": [128], "dtype": "float32"}, {"name": "conv2d_677/kernel", "shape": [3, 3, 128, 128], "dtype": "float32"}, {"name": "conv2d_677/bias", "shape": [128], "dtype": "float32"}, {"name": "conv2d_678/kernel", "shape": [3, 3, 128, 128], "dtype": "float32"}, {"name": "conv2d_678/bias", "shape": [128], "dtype": "float32"}, {"name": "conv2d_679/kernel", "shape": [3, 3, 128, 128], "dtype": "float32"}, {"name": "conv2d_679/bias", "shape": [128], "dtype": "float32"}, {"name": "conv2d_680/kernel", "shape": [3, 3, 128, 128], "dtype": "float32"}, {"name": "conv2d_680/bias", "shape": [128], "dtype": "float32"}, {"name": "conv2d_681/kernel", "shape": [3, 3, 128, 128], "dtype": "float32"}, {"name": "conv2d_681/bias", "shape": [128], "dtype": "float32"}, {"name": "conv2d_682/kernel", "shape": [3, 3, 128, 128], "dtype": "float32"}, {"name": "conv2d_682/bias", "shape": [128], "dtype": "float32"}, {"name": "conv2d_683/kernel", "shape": [3, 3, 128, 128], "dtype": "float32"}, {"name": "conv2d_683/bias", "shape": [128], "dtype": "float32"}, {"name": "conv2d_684/kernel", "shape": [3, 3, 128, 128], "dtype": "float32"}, {"name": "conv2d_684/bias", "shape": [128], "dtype": "float32"}, {"name": "conv2d_685/kernel", "shape": [3, 3, 128, 128], "dtype": "float32"}, {"name": "conv2d_685/bias", "shape": [128], "dtype": "float32"}, {"name": "conv2d_686/kernel", "shape": [3, 3, 128, 128], "dtype": "float32"}, {"name": "conv2d_686/bias", "shape": [128], "dtype": "float32"}, {"name": "conv2d_687/kernel", "shape": [3, 3, 128, 128], "dtype": "float32"}, {"name": "conv2d_687/bias", "shape": [128], "dtype": "float32"}, {"name": "conv2d_688/kernel", "shape": [3, 3, 128, 128], "dtype": "float32"}, {"name": "conv2d_688/bias", "shape": [128], "dtype": "float32"}, {"name": "conv2d_689/kernel", "shape": [3, 3, 128, 128], "dtype": "float32"}, {"name": "conv2d_689/bias", "shape": [128], "dtype": "float32"}, {"name": "conv2d_690/kernel", "shape": [3, 3, 128, 128], "dtype": "float32"}, {"name": "conv2d_690/bias", "shape": [128], "dtype": "float32"}, {"name": "conv2d_691/kernel", "shape": [3, 3, 128, 128], "dtype": "float32"}, {"name": "conv2d_691/bias", "shape": [128], "dtype": "float32"}, {"name": "conv2d_692/kernel", "shape": [3, 3, 128, 128], "dtype": "float32"}, {"name": "conv2d_692/bias", "shape": [128], "dtype": "float32"}, {"name": "conv2d_693/kernel", "shape": [3, 3, 128, 128], "dtype": "float32"}, {"name": "conv2d_693/bias", "shape": [128], "dtype": "float32"}, {"name": "conv2d_694/kernel", "shape": [3, 3, 128, 128], "dtype": "float32"}, {"name": "conv2d_694/bias", "shape": [128], "dtype": "float32"}, {"name": "conv2d_695/kernel", "shape": [3, 3, 128, 128], "dtype": "float32"}, {"name": "conv2d_695/bias", "shape": [128], "dtype": "float32"}, {"name": "conv2d_696/kernel", "shape": [3, 3, 128, 128], "dtype": "float32"}, {"name": "conv2d_696/bias", "shape": [128], "dtype": "float32"}, {"name": "conv2d_697/kernel", "shape": [3, 3, 128, 128], "dtype": "float32"}, {"name": "conv2d_697/bias", "shape": [128], "dtype": "float32"}, {"name": "conv2d_698/kernel", "shape": [3, 3, 128, 128], "dtype": "float32"}, {"name": "conv2d_698/bias", "shape": [128], "dtype": "float32"}, {"name": "conv2d_699/kernel", "shape": [3, 3, 64, 64], "dtype": "float32"}, {"name": "conv2d_699/bias", "shape": [64], "dtype": "float32"}, {"name": "conv2d_700/kernel", "shape": [3, 3, 64, 64], "dtype": "float32"}, {"name": "conv2d_700/bias", "shape": [64], "dtype": "float32"}, {"name": "conv2d_701/kernel", "shape": [3, 3, 64, 64], "dtype": "float32"}, {"name": "conv2d_701/bias", "shape": [64], "dtype": "float32"}, {"name": "conv2d_702/kernel", "shape": [3, 3, 64, 64], "dtype": "float32"}, {"name": "conv2d_702/bias", "shape": [64], "dtype": "float32"}, {"name": "conv2d_703/kernel", "shape": [3, 3, 64, 64], "dtype": "float32"}, {"name": "conv2d_703/bias", "shape": [64], "dtype": "float32"}, {"name": "conv2d_704/kernel", "shape": [3, 3, 64, 64], "dtype": "float32"}, {"name": "conv2d_704/bias", "shape": [64], "dtype": "float32"}, {"name": "conv2d_705/kernel", "shape": [3, 3, 64, 64], "dtype": "float32"}, {"name": "conv2d_705/bias", "shape": [64], "dtype": "float32"}, {"name": "conv2d_706/kernel", "shape": [3, 3, 64, 64], "dtype": "float32"}, {"name": "conv2d_706/bias", "shape": [64], "dtype": "float32"}, {"name": "conv2d_707/kernel", "shape": [3, 3, 64, 64], "dtype": "float32"}, {"name": "conv2d_707/bias", "shape": [64], "dtype": "float32"}, {"name": "conv2d_708/kernel", "shape": [3, 3, 64, 64], "dtype": "float32"}, {"name": "conv2d_708/bias", "shape": [64], "dtype": "float32"}, {"name": "conv2d_709/kernel", "shape": [3, 3, 64, 64], "dtype": "float32"}, {"name": "conv2d_709/bias", "shape": [64], "dtype": "float32"}, {"name": "conv2d_710/kernel", "shape": [3, 3, 64, 64], "dtype": "float32"}, {"name": "conv2d_710/bias", "shape": [64], "dtype": "float32"}, {"name": "conv2d_711/kernel", "shape": [3, 3, 64, 64], "dtype": "float32"}, {"name": "conv2d_711/bias", "shape": [64], "dtype": "float32"}, {"name": "conv2d_712/kernel", "shape": [3, 3, 64, 64], "dtype": "float32"}, {"name": "conv2d_712/bias", "shape": [64], "dtype": "float32"}, {"name": "conv2d_713/kernel", "shape": [3, 3, 64, 64], "dtype": "float32"}, {"name": "conv2d_713/bias", "shape": [64], "dtype": "float32"}, {"name": "conv2d_714/kernel", "shape": [3, 3, 64, 64], "dtype": "float32"}, {"name": "conv2d_714/bias", "shape": [64], "dtype": "float32"}, {"name": "conv2d_715/kernel", "shape": [3, 3, 64, 64], "dtype": "float32"}, {"name": "conv2d_715/bias", "shape": [64], "dtype": "float32"}, {"name": "conv2d_716/kernel", "shape": [3, 3, 64, 64], "dtype": "float32"}, {"name": "conv2d_716/bias", "shape": [64], "dtype": "float32"}, {"name": "conv2d_717/kernel", "shape": [3, 3, 64, 64], "dtype": "float32"}, {"name": "conv2d_717/bias", "shape": [64], "dtype": "float32"}, {"name": "conv2d_718/kernel", "shape": [3, 3, 64, 64], "dtype": "float32"}, {"name": "conv2d_718/bias", "shape": [64], "dtype": "float32"}, {"name": "conv2d_719/kernel", "shape": [3, 3, 64, 64], "dtype": "float32"}, {"name": "conv2d_719/bias", "shape": [64], "dtype": "float32"}, {"name": "conv2d_720/kernel", "shape": [3, 3, 64, 64], "dtype": "float32"}, {"name": "conv2d_720/bias", "shape": [64], "dtype": "float32"}, {"name": "conv2d_721/kernel", "shape": [3, 3, 64, 64], "dtype": "float32"}, {"name": "conv2d_721/bias", "shape": [64], "dtype": "float32"}, {"name": "conv2d_722/kernel", "shape": [3, 3, 64, 64], "dtype": "float32"}, {"name": "conv2d_722/bias", "shape": [64], "dtype": "float32"}, {"name": "conv2d_723/kernel", "shape": [3, 3, 64, 64], "dtype": "float32"}, {"name": "conv2d_723/bias", "shape": [64], "dtype": "float32"}, {"name": "conv2d_724/kernel", "shape": [3, 3, 64, 64], "dtype": "float32"}, {"name": "conv2d_724/bias", "shape": [64], "dtype": "float32"}, {"name": "conv2d_725/kernel", "shape": [3, 3, 64, 64], "dtype": "float32"}, {"name": "conv2d_725/bias", "shape": [64], "dtype": "float32"}, {"name": "conv2d_726/kernel", "shape": [3, 3, 64, 64], "dtype": "float32"}, {"name": "conv2d_726/bias", "shape": [64], "dtype": "float32"}, {"name": "conv2d_727/kernel", "shape": [3, 3, 64, 64], "dtype": "float32"}, {"name": "conv2d_727/bias", "shape": [64], "dtype": "float32"}, {"name": "conv2d_728/kernel", "shape": [3, 3, 64, 3], "dtype": "float32"}, {"name": "conv2d_728/bias", "shape": [3], "dtype": "float32"}, {"name": "conv2d_transpose_8/kernel", "shape": [3, 3, 128, 256], "dtype": "float32"}, {"name": "conv2d_transpose_8/bias", "shape": [128], "dtype": "float32"}, {"name": "conv2d_transpose_9/kernel", "shape": [3, 3, 64, 128], "dtype": "float32"}, {"name": "conv2d_transpose_9/bias", "shape": [64], "dtype": "float32"}, {"name": "seq_self_attention_4/seq_self_attention_4_Add_Wt", "shape": [1024, 32], "dtype": "float32"}, {"name": "seq_self_attention_4/seq_self_attention_4_Add_Wx", "shape": [1024, 32], "dtype": "float32"}, {"name": "seq_self_attention_4/seq_self_attention_4_Add_bh", "shape": [32], "dtype": "float32"}, {"name": "seq_self_attention_4/seq_self_attention_4_Add_Wa", "shape": [32, 1], "dtype": "float32"}, {"name": "seq_self_attention_4/seq_self_attention_4_Add_ba", "shape": [1], "dtype": "float32"}]}]}